<?xml version="1.0"?>
<net name="torch_jit" version="11">
	<layers>
		<layer id="0" name="image" type="Parameter" version="opset1">
			<data shape="?,3,736,992" element_type="f32" />
			<output>
				<port id="0" precision="FP32" names="image">
					<dim>-1</dim>
					<dim>3</dim>
					<dim>736</dim>
					<dim>992</dim>
				</port>
			</output>
		</layer>
		<layer id="1" name="Constant_892" type="Const" version="opset1">
			<data element_type="f32" shape="1, 1, 4" offset="0" size="16" />
			<output>
				<port id="0" precision="FP32" names="onnx::Add_1266">
					<dim>1</dim>
					<dim>1</dim>
					<dim>4</dim>
				</port>
			</output>
		</layer>
		<layer id="2" name="onnx::Range_2624" type="Const" version="opset1">
			<data element_type="i64" shape="" offset="16" size="8" />
			<output>
				<port id="0" precision="I64" names="onnx::Range_2622,onnx::Range_2624,onnx::Range_2628,onnx::Range_2630,onnx::Range_2634,onnx::Range_2636,onnx::Range_2640,onnx::Range_2642,onnx::Range_2646,onnx::Range_2648,onnx::Range_2694" />
			</output>
		</layer>
		<layer id="3" name="Constant_92083" type="Const" version="opset1">
			<data element_type="f32" shape="1, 3, 1, 1" offset="24" size="12" />
			<output>
				<port id="0" precision="FP32">
					<dim>1</dim>
					<dim>3</dim>
					<dim>1</dim>
					<dim>1</dim>
				</port>
			</output>
		</layer>
		<layer id="4" name="Subtract_92084" type="Subtract" version="opset1">
			<data auto_broadcast="numpy" />
			<rt_info>
				<attribute name="preprocessing" version="0" />
			</rt_info>
			<input>
				<port id="0" precision="FP32">
					<dim>-1</dim>
					<dim>3</dim>
					<dim>736</dim>
					<dim>992</dim>
				</port>
				<port id="1" precision="FP32">
					<dim>1</dim>
					<dim>3</dim>
					<dim>1</dim>
					<dim>1</dim>
				</port>
			</input>
			<output>
				<port id="2" precision="FP32">
					<dim>-1</dim>
					<dim>3</dim>
					<dim>736</dim>
					<dim>992</dim>
				</port>
			</output>
		</layer>
		<layer id="5" name="Constant_209488" type="Const" version="opset1">
			<data element_type="f32" shape="1, 3, 1, 1" offset="36" size="12" />
			<output>
				<port id="0" precision="FP32">
					<dim>1</dim>
					<dim>3</dim>
					<dim>1</dim>
					<dim>1</dim>
				</port>
			</output>
		</layer>
		<layer id="6" name="Divide_92086" type="Multiply" version="opset1">
			<data auto_broadcast="numpy" />
			<rt_info>
				<attribute name="preprocessing" version="0" />
			</rt_info>
			<input>
				<port id="0" precision="FP32">
					<dim>-1</dim>
					<dim>3</dim>
					<dim>736</dim>
					<dim>992</dim>
				</port>
				<port id="1" precision="FP32">
					<dim>1</dim>
					<dim>3</dim>
					<dim>1</dim>
					<dim>1</dim>
				</port>
			</input>
			<output>
				<port id="2" precision="FP32">
					<dim>-1</dim>
					<dim>3</dim>
					<dim>736</dim>
					<dim>992</dim>
				</port>
			</output>
		</layer>
		<layer id="7" name="onnx::Conv_2387" type="Const" version="opset1">
			<data element_type="f32" shape="32, 3, 3, 3" offset="48" size="3456" />
			<output>
				<port id="0" precision="FP32" names="onnx::Conv_2387">
					<dim>32</dim>
					<dim>3</dim>
					<dim>3</dim>
					<dim>3</dim>
				</port>
			</output>
		</layer>
		<layer id="8" name="Conv_139/WithoutBiases" type="Convolution" version="opset1">
			<data strides="2, 2" dilations="1, 1" pads_begin="1, 1" pads_end="1, 1" auto_pad="explicit" />
			<input>
				<port id="0" precision="FP32">
					<dim>-1</dim>
					<dim>3</dim>
					<dim>736</dim>
					<dim>992</dim>
				</port>
				<port id="1" precision="FP32">
					<dim>32</dim>
					<dim>3</dim>
					<dim>3</dim>
					<dim>3</dim>
				</port>
			</input>
			<output>
				<port id="2" precision="FP32">
					<dim>-1</dim>
					<dim>32</dim>
					<dim>368</dim>
					<dim>496</dim>
				</port>
			</output>
		</layer>
		<layer id="9" name="Reshape_193" type="Const" version="opset1">
			<data element_type="f32" shape="1, 32, 1, 1" offset="3504" size="128" />
			<output>
				<port id="0" precision="FP32">
					<dim>1</dim>
					<dim>32</dim>
					<dim>1</dim>
					<dim>1</dim>
				</port>
			</output>
		</layer>
		<layer id="10" name="Conv_139" type="Add" version="opset1">
			<data auto_broadcast="numpy" />
			<input>
				<port id="0" precision="FP32">
					<dim>-1</dim>
					<dim>32</dim>
					<dim>368</dim>
					<dim>496</dim>
				</port>
				<port id="1" precision="FP32">
					<dim>1</dim>
					<dim>32</dim>
					<dim>1</dim>
					<dim>1</dim>
				</port>
			</input>
			<output>
				<port id="2" precision="FP32" names="onnx::Clip_2386">
					<dim>-1</dim>
					<dim>32</dim>
					<dim>368</dim>
					<dim>496</dim>
				</port>
			</output>
		</layer>
		<layer id="11" name="Clip_142" type="Clamp" version="opset1">
			<data min="0" max="6" />
			<input>
				<port id="0" precision="FP32">
					<dim>-1</dim>
					<dim>32</dim>
					<dim>368</dim>
					<dim>496</dim>
				</port>
			</input>
			<output>
				<port id="1" precision="FP32" names="onnx::Conv_374">
					<dim>-1</dim>
					<dim>32</dim>
					<dim>368</dim>
					<dim>496</dim>
				</port>
			</output>
		</layer>
		<layer id="12" name="onnx::Conv_2390" type="Const" version="opset1">
			<data element_type="f32" shape="32, 32, 1, 1" offset="3632" size="4096" />
			<output>
				<port id="0" precision="FP32" names="onnx::Conv_2390">
					<dim>32</dim>
					<dim>32</dim>
					<dim>1</dim>
					<dim>1</dim>
				</port>
			</output>
		</layer>
		<layer id="13" name="Conv_143/WithoutBiases" type="Convolution" version="opset1">
			<data strides="1, 1" dilations="1, 1" pads_begin="0, 0" pads_end="0, 0" auto_pad="explicit" />
			<input>
				<port id="0" precision="FP32">
					<dim>-1</dim>
					<dim>32</dim>
					<dim>368</dim>
					<dim>496</dim>
				</port>
				<port id="1" precision="FP32">
					<dim>32</dim>
					<dim>32</dim>
					<dim>1</dim>
					<dim>1</dim>
				</port>
			</input>
			<output>
				<port id="2" precision="FP32">
					<dim>-1</dim>
					<dim>32</dim>
					<dim>368</dim>
					<dim>496</dim>
				</port>
			</output>
		</layer>
		<layer id="14" name="Reshape_245" type="Const" version="opset1">
			<data element_type="f32" shape="1, 32, 1, 1" offset="7728" size="128" />
			<output>
				<port id="0" precision="FP32">
					<dim>1</dim>
					<dim>32</dim>
					<dim>1</dim>
					<dim>1</dim>
				</port>
			</output>
		</layer>
		<layer id="15" name="Conv_143" type="Add" version="opset1">
			<data auto_broadcast="numpy" />
			<input>
				<port id="0" precision="FP32">
					<dim>-1</dim>
					<dim>32</dim>
					<dim>368</dim>
					<dim>496</dim>
				</port>
				<port id="1" precision="FP32">
					<dim>1</dim>
					<dim>32</dim>
					<dim>1</dim>
					<dim>1</dim>
				</port>
			</input>
			<output>
				<port id="2" precision="FP32" names="onnx::Clip_2389">
					<dim>-1</dim>
					<dim>32</dim>
					<dim>368</dim>
					<dim>496</dim>
				</port>
			</output>
		</layer>
		<layer id="16" name="Clip_146" type="Clamp" version="opset1">
			<data min="0" max="6" />
			<input>
				<port id="0" precision="FP32">
					<dim>-1</dim>
					<dim>32</dim>
					<dim>368</dim>
					<dim>496</dim>
				</port>
			</input>
			<output>
				<port id="1" precision="FP32" names="onnx::Conv_379">
					<dim>-1</dim>
					<dim>32</dim>
					<dim>368</dim>
					<dim>496</dim>
				</port>
			</output>
		</layer>
		<layer id="17" name="Reshape_284" type="Const" version="opset1">
			<data element_type="f32" shape="32, 1, 1, 3, 3" offset="7856" size="1152" />
			<output>
				<port id="0" precision="FP32">
					<dim>32</dim>
					<dim>1</dim>
					<dim>1</dim>
					<dim>3</dim>
					<dim>3</dim>
				</port>
			</output>
		</layer>
		<layer id="18" name="Conv_147/WithoutBiases" type="GroupConvolution" version="opset1">
			<data strides="1, 1" pads_begin="1, 1" pads_end="1, 1" dilations="1, 1" auto_pad="explicit" />
			<input>
				<port id="0" precision="FP32">
					<dim>-1</dim>
					<dim>32</dim>
					<dim>368</dim>
					<dim>496</dim>
				</port>
				<port id="1" precision="FP32">
					<dim>32</dim>
					<dim>1</dim>
					<dim>1</dim>
					<dim>3</dim>
					<dim>3</dim>
				</port>
			</input>
			<output>
				<port id="2" precision="FP32">
					<dim>-1</dim>
					<dim>32</dim>
					<dim>368</dim>
					<dim>496</dim>
				</port>
			</output>
		</layer>
		<layer id="19" name="Reshape_370" type="Const" version="opset1">
			<data element_type="f32" shape="1, 32, 1, 1" offset="9008" size="128" />
			<output>
				<port id="0" precision="FP32">
					<dim>1</dim>
					<dim>32</dim>
					<dim>1</dim>
					<dim>1</dim>
				</port>
			</output>
		</layer>
		<layer id="20" name="Conv_147" type="Add" version="opset1">
			<data auto_broadcast="numpy" />
			<input>
				<port id="0" precision="FP32">
					<dim>-1</dim>
					<dim>32</dim>
					<dim>368</dim>
					<dim>496</dim>
				</port>
				<port id="1" precision="FP32">
					<dim>1</dim>
					<dim>32</dim>
					<dim>1</dim>
					<dim>1</dim>
				</port>
			</input>
			<output>
				<port id="2" precision="FP32" names="onnx::Clip_2392">
					<dim>-1</dim>
					<dim>32</dim>
					<dim>368</dim>
					<dim>496</dim>
				</port>
			</output>
		</layer>
		<layer id="21" name="Clip_150" type="Clamp" version="opset1">
			<data min="0" max="6" />
			<input>
				<port id="0" precision="FP32">
					<dim>-1</dim>
					<dim>32</dim>
					<dim>368</dim>
					<dim>496</dim>
				</port>
			</input>
			<output>
				<port id="1" precision="FP32" names="onnx::Conv_384">
					<dim>-1</dim>
					<dim>32</dim>
					<dim>368</dim>
					<dim>496</dim>
				</port>
			</output>
		</layer>
		<layer id="22" name="onnx::Conv_2396" type="Const" version="opset1">
			<data element_type="f32" shape="16, 32, 1, 1" offset="9136" size="2048" />
			<output>
				<port id="0" precision="FP32" names="onnx::Conv_2396">
					<dim>16</dim>
					<dim>32</dim>
					<dim>1</dim>
					<dim>1</dim>
				</port>
			</output>
		</layer>
		<layer id="23" name="Conv_151/WithoutBiases" type="Convolution" version="opset1">
			<data strides="1, 1" dilations="1, 1" pads_begin="0, 0" pads_end="0, 0" auto_pad="explicit" />
			<input>
				<port id="0" precision="FP32">
					<dim>-1</dim>
					<dim>32</dim>
					<dim>368</dim>
					<dim>496</dim>
				</port>
				<port id="1" precision="FP32">
					<dim>16</dim>
					<dim>32</dim>
					<dim>1</dim>
					<dim>1</dim>
				</port>
			</input>
			<output>
				<port id="2" precision="FP32">
					<dim>-1</dim>
					<dim>16</dim>
					<dim>368</dim>
					<dim>496</dim>
				</port>
			</output>
		</layer>
		<layer id="24" name="Reshape_422" type="Const" version="opset1">
			<data element_type="f32" shape="1, 16, 1, 1" offset="11184" size="64" />
			<output>
				<port id="0" precision="FP32">
					<dim>1</dim>
					<dim>16</dim>
					<dim>1</dim>
					<dim>1</dim>
				</port>
			</output>
		</layer>
		<layer id="25" name="Conv_151" type="Add" version="opset1">
			<data auto_broadcast="numpy" />
			<input>
				<port id="0" precision="FP32">
					<dim>-1</dim>
					<dim>16</dim>
					<dim>368</dim>
					<dim>496</dim>
				</port>
				<port id="1" precision="FP32">
					<dim>1</dim>
					<dim>16</dim>
					<dim>1</dim>
					<dim>1</dim>
				</port>
			</input>
			<output>
				<port id="2" precision="FP32" names="input.15">
					<dim>-1</dim>
					<dim>16</dim>
					<dim>368</dim>
					<dim>496</dim>
				</port>
			</output>
		</layer>
		<layer id="26" name="onnx::Conv_2399" type="Const" version="opset1">
			<data element_type="f32" shape="96, 16, 1, 1" offset="11248" size="6144" />
			<output>
				<port id="0" precision="FP32" names="onnx::Conv_2399">
					<dim>96</dim>
					<dim>16</dim>
					<dim>1</dim>
					<dim>1</dim>
				</port>
			</output>
		</layer>
		<layer id="27" name="Conv_152/WithoutBiases" type="Convolution" version="opset1">
			<data strides="1, 1" dilations="1, 1" pads_begin="0, 0" pads_end="0, 0" auto_pad="explicit" />
			<input>
				<port id="0" precision="FP32">
					<dim>-1</dim>
					<dim>16</dim>
					<dim>368</dim>
					<dim>496</dim>
				</port>
				<port id="1" precision="FP32">
					<dim>96</dim>
					<dim>16</dim>
					<dim>1</dim>
					<dim>1</dim>
				</port>
			</input>
			<output>
				<port id="2" precision="FP32">
					<dim>-1</dim>
					<dim>96</dim>
					<dim>368</dim>
					<dim>496</dim>
				</port>
			</output>
		</layer>
		<layer id="28" name="Reshape_470" type="Const" version="opset1">
			<data element_type="f32" shape="1, 96, 1, 1" offset="17392" size="384" />
			<output>
				<port id="0" precision="FP32">
					<dim>1</dim>
					<dim>96</dim>
					<dim>1</dim>
					<dim>1</dim>
				</port>
			</output>
		</layer>
		<layer id="29" name="Conv_152" type="Add" version="opset1">
			<data auto_broadcast="numpy" />
			<input>
				<port id="0" precision="FP32">
					<dim>-1</dim>
					<dim>96</dim>
					<dim>368</dim>
					<dim>496</dim>
				</port>
				<port id="1" precision="FP32">
					<dim>1</dim>
					<dim>96</dim>
					<dim>1</dim>
					<dim>1</dim>
				</port>
			</input>
			<output>
				<port id="2" precision="FP32" names="onnx::Clip_2398">
					<dim>-1</dim>
					<dim>96</dim>
					<dim>368</dim>
					<dim>496</dim>
				</port>
			</output>
		</layer>
		<layer id="30" name="Clip_155" type="Clamp" version="opset1">
			<data min="0" max="6" />
			<input>
				<port id="0" precision="FP32">
					<dim>-1</dim>
					<dim>96</dim>
					<dim>368</dim>
					<dim>496</dim>
				</port>
			</input>
			<output>
				<port id="1" precision="FP32" names="onnx::Conv_391">
					<dim>-1</dim>
					<dim>96</dim>
					<dim>368</dim>
					<dim>496</dim>
				</port>
			</output>
		</layer>
		<layer id="31" name="Reshape_509" type="Const" version="opset1">
			<data element_type="f32" shape="96, 1, 1, 3, 3" offset="17776" size="3456" />
			<output>
				<port id="0" precision="FP32">
					<dim>96</dim>
					<dim>1</dim>
					<dim>1</dim>
					<dim>3</dim>
					<dim>3</dim>
				</port>
			</output>
		</layer>
		<layer id="32" name="Conv_156/WithoutBiases" type="GroupConvolution" version="opset1">
			<data strides="2, 2" pads_begin="1, 1" pads_end="1, 1" dilations="1, 1" auto_pad="explicit" />
			<input>
				<port id="0" precision="FP32">
					<dim>-1</dim>
					<dim>96</dim>
					<dim>368</dim>
					<dim>496</dim>
				</port>
				<port id="1" precision="FP32">
					<dim>96</dim>
					<dim>1</dim>
					<dim>1</dim>
					<dim>3</dim>
					<dim>3</dim>
				</port>
			</input>
			<output>
				<port id="2" precision="FP32">
					<dim>-1</dim>
					<dim>96</dim>
					<dim>184</dim>
					<dim>248</dim>
				</port>
			</output>
		</layer>
		<layer id="33" name="Reshape_595" type="Const" version="opset1">
			<data element_type="f32" shape="1, 96, 1, 1" offset="21232" size="384" />
			<output>
				<port id="0" precision="FP32">
					<dim>1</dim>
					<dim>96</dim>
					<dim>1</dim>
					<dim>1</dim>
				</port>
			</output>
		</layer>
		<layer id="34" name="Conv_156" type="Add" version="opset1">
			<data auto_broadcast="numpy" />
			<input>
				<port id="0" precision="FP32">
					<dim>-1</dim>
					<dim>96</dim>
					<dim>184</dim>
					<dim>248</dim>
				</port>
				<port id="1" precision="FP32">
					<dim>1</dim>
					<dim>96</dim>
					<dim>1</dim>
					<dim>1</dim>
				</port>
			</input>
			<output>
				<port id="2" precision="FP32" names="onnx::Clip_2401">
					<dim>-1</dim>
					<dim>96</dim>
					<dim>184</dim>
					<dim>248</dim>
				</port>
			</output>
		</layer>
		<layer id="35" name="Clip_159" type="Clamp" version="opset1">
			<data min="0" max="6" />
			<input>
				<port id="0" precision="FP32">
					<dim>-1</dim>
					<dim>96</dim>
					<dim>184</dim>
					<dim>248</dim>
				</port>
			</input>
			<output>
				<port id="1" precision="FP32" names="onnx::Conv_396">
					<dim>-1</dim>
					<dim>96</dim>
					<dim>184</dim>
					<dim>248</dim>
				</port>
			</output>
		</layer>
		<layer id="36" name="onnx::Conv_2405" type="Const" version="opset1">
			<data element_type="f32" shape="24, 96, 1, 1" offset="21616" size="9216" />
			<output>
				<port id="0" precision="FP32" names="onnx::Conv_2405">
					<dim>24</dim>
					<dim>96</dim>
					<dim>1</dim>
					<dim>1</dim>
				</port>
			</output>
		</layer>
		<layer id="37" name="Conv_160/WithoutBiases" type="Convolution" version="opset1">
			<data strides="1, 1" dilations="1, 1" pads_begin="0, 0" pads_end="0, 0" auto_pad="explicit" />
			<input>
				<port id="0" precision="FP32">
					<dim>-1</dim>
					<dim>96</dim>
					<dim>184</dim>
					<dim>248</dim>
				</port>
				<port id="1" precision="FP32">
					<dim>24</dim>
					<dim>96</dim>
					<dim>1</dim>
					<dim>1</dim>
				</port>
			</input>
			<output>
				<port id="2" precision="FP32">
					<dim>-1</dim>
					<dim>24</dim>
					<dim>184</dim>
					<dim>248</dim>
				</port>
			</output>
		</layer>
		<layer id="38" name="Reshape_647" type="Const" version="opset1">
			<data element_type="f32" shape="1, 24, 1, 1" offset="30832" size="96" />
			<output>
				<port id="0" precision="FP32">
					<dim>1</dim>
					<dim>24</dim>
					<dim>1</dim>
					<dim>1</dim>
				</port>
			</output>
		</layer>
		<layer id="39" name="Conv_160" type="Add" version="opset1">
			<data auto_broadcast="numpy" />
			<input>
				<port id="0" precision="FP32">
					<dim>-1</dim>
					<dim>24</dim>
					<dim>184</dim>
					<dim>248</dim>
				</port>
				<port id="1" precision="FP32">
					<dim>1</dim>
					<dim>24</dim>
					<dim>1</dim>
					<dim>1</dim>
				</port>
			</input>
			<output>
				<port id="2" precision="FP32" names="input.31">
					<dim>-1</dim>
					<dim>24</dim>
					<dim>184</dim>
					<dim>248</dim>
				</port>
			</output>
		</layer>
		<layer id="40" name="onnx::Conv_2408" type="Const" version="opset1">
			<data element_type="f32" shape="144, 24, 1, 1" offset="30928" size="13824" />
			<output>
				<port id="0" precision="FP32" names="onnx::Conv_2408">
					<dim>144</dim>
					<dim>24</dim>
					<dim>1</dim>
					<dim>1</dim>
				</port>
			</output>
		</layer>
		<layer id="41" name="Conv_161/WithoutBiases" type="Convolution" version="opset1">
			<data strides="1, 1" dilations="1, 1" pads_begin="0, 0" pads_end="0, 0" auto_pad="explicit" />
			<input>
				<port id="0" precision="FP32">
					<dim>-1</dim>
					<dim>24</dim>
					<dim>184</dim>
					<dim>248</dim>
				</port>
				<port id="1" precision="FP32">
					<dim>144</dim>
					<dim>24</dim>
					<dim>1</dim>
					<dim>1</dim>
				</port>
			</input>
			<output>
				<port id="2" precision="FP32">
					<dim>-1</dim>
					<dim>144</dim>
					<dim>184</dim>
					<dim>248</dim>
				</port>
			</output>
		</layer>
		<layer id="42" name="Reshape_695" type="Const" version="opset1">
			<data element_type="f32" shape="1, 144, 1, 1" offset="44752" size="576" />
			<output>
				<port id="0" precision="FP32">
					<dim>1</dim>
					<dim>144</dim>
					<dim>1</dim>
					<dim>1</dim>
				</port>
			</output>
		</layer>
		<layer id="43" name="Conv_161" type="Add" version="opset1">
			<data auto_broadcast="numpy" />
			<input>
				<port id="0" precision="FP32">
					<dim>-1</dim>
					<dim>144</dim>
					<dim>184</dim>
					<dim>248</dim>
				</port>
				<port id="1" precision="FP32">
					<dim>1</dim>
					<dim>144</dim>
					<dim>1</dim>
					<dim>1</dim>
				</port>
			</input>
			<output>
				<port id="2" precision="FP32" names="onnx::Clip_2407">
					<dim>-1</dim>
					<dim>144</dim>
					<dim>184</dim>
					<dim>248</dim>
				</port>
			</output>
		</layer>
		<layer id="44" name="Clip_164" type="Clamp" version="opset1">
			<data min="0" max="6" />
			<input>
				<port id="0" precision="FP32">
					<dim>-1</dim>
					<dim>144</dim>
					<dim>184</dim>
					<dim>248</dim>
				</port>
			</input>
			<output>
				<port id="1" precision="FP32" names="onnx::Conv_403">
					<dim>-1</dim>
					<dim>144</dim>
					<dim>184</dim>
					<dim>248</dim>
				</port>
			</output>
		</layer>
		<layer id="45" name="Reshape_734" type="Const" version="opset1">
			<data element_type="f32" shape="144, 1, 1, 3, 3" offset="45328" size="5184" />
			<output>
				<port id="0" precision="FP32">
					<dim>144</dim>
					<dim>1</dim>
					<dim>1</dim>
					<dim>3</dim>
					<dim>3</dim>
				</port>
			</output>
		</layer>
		<layer id="46" name="Conv_165/WithoutBiases" type="GroupConvolution" version="opset1">
			<data strides="1, 1" pads_begin="1, 1" pads_end="1, 1" dilations="1, 1" auto_pad="explicit" />
			<input>
				<port id="0" precision="FP32">
					<dim>-1</dim>
					<dim>144</dim>
					<dim>184</dim>
					<dim>248</dim>
				</port>
				<port id="1" precision="FP32">
					<dim>144</dim>
					<dim>1</dim>
					<dim>1</dim>
					<dim>3</dim>
					<dim>3</dim>
				</port>
			</input>
			<output>
				<port id="2" precision="FP32">
					<dim>-1</dim>
					<dim>144</dim>
					<dim>184</dim>
					<dim>248</dim>
				</port>
			</output>
		</layer>
		<layer id="47" name="Reshape_820" type="Const" version="opset1">
			<data element_type="f32" shape="1, 144, 1, 1" offset="50512" size="576" />
			<output>
				<port id="0" precision="FP32">
					<dim>1</dim>
					<dim>144</dim>
					<dim>1</dim>
					<dim>1</dim>
				</port>
			</output>
		</layer>
		<layer id="48" name="Conv_165" type="Add" version="opset1">
			<data auto_broadcast="numpy" />
			<input>
				<port id="0" precision="FP32">
					<dim>-1</dim>
					<dim>144</dim>
					<dim>184</dim>
					<dim>248</dim>
				</port>
				<port id="1" precision="FP32">
					<dim>1</dim>
					<dim>144</dim>
					<dim>1</dim>
					<dim>1</dim>
				</port>
			</input>
			<output>
				<port id="2" precision="FP32" names="onnx::Clip_2410">
					<dim>-1</dim>
					<dim>144</dim>
					<dim>184</dim>
					<dim>248</dim>
				</port>
			</output>
		</layer>
		<layer id="49" name="Clip_168" type="Clamp" version="opset1">
			<data min="0" max="6" />
			<input>
				<port id="0" precision="FP32">
					<dim>-1</dim>
					<dim>144</dim>
					<dim>184</dim>
					<dim>248</dim>
				</port>
			</input>
			<output>
				<port id="1" precision="FP32" names="onnx::Conv_408">
					<dim>-1</dim>
					<dim>144</dim>
					<dim>184</dim>
					<dim>248</dim>
				</port>
			</output>
		</layer>
		<layer id="50" name="onnx::Conv_2414" type="Const" version="opset1">
			<data element_type="f32" shape="24, 144, 1, 1" offset="51088" size="13824" />
			<output>
				<port id="0" precision="FP32" names="onnx::Conv_2414">
					<dim>24</dim>
					<dim>144</dim>
					<dim>1</dim>
					<dim>1</dim>
				</port>
			</output>
		</layer>
		<layer id="51" name="Conv_169/WithoutBiases" type="Convolution" version="opset1">
			<data strides="1, 1" dilations="1, 1" pads_begin="0, 0" pads_end="0, 0" auto_pad="explicit" />
			<input>
				<port id="0" precision="FP32">
					<dim>-1</dim>
					<dim>144</dim>
					<dim>184</dim>
					<dim>248</dim>
				</port>
				<port id="1" precision="FP32">
					<dim>24</dim>
					<dim>144</dim>
					<dim>1</dim>
					<dim>1</dim>
				</port>
			</input>
			<output>
				<port id="2" precision="FP32">
					<dim>-1</dim>
					<dim>24</dim>
					<dim>184</dim>
					<dim>248</dim>
				</port>
			</output>
		</layer>
		<layer id="52" name="Reshape_872" type="Const" version="opset1">
			<data element_type="f32" shape="1, 24, 1, 1" offset="64912" size="96" />
			<output>
				<port id="0" precision="FP32">
					<dim>1</dim>
					<dim>24</dim>
					<dim>1</dim>
					<dim>1</dim>
				</port>
			</output>
		</layer>
		<layer id="53" name="Conv_169" type="Add" version="opset1">
			<data auto_broadcast="numpy" />
			<input>
				<port id="0" precision="FP32">
					<dim>-1</dim>
					<dim>24</dim>
					<dim>184</dim>
					<dim>248</dim>
				</port>
				<port id="1" precision="FP32">
					<dim>1</dim>
					<dim>24</dim>
					<dim>1</dim>
					<dim>1</dim>
				</port>
			</input>
			<output>
				<port id="2" precision="FP32" names="onnx::Add_2413">
					<dim>-1</dim>
					<dim>24</dim>
					<dim>184</dim>
					<dim>248</dim>
				</port>
			</output>
		</layer>
		<layer id="54" name="Add_170" type="Add" version="opset1">
			<data auto_broadcast="numpy" />
			<input>
				<port id="0" precision="FP32">
					<dim>-1</dim>
					<dim>24</dim>
					<dim>184</dim>
					<dim>248</dim>
				</port>
				<port id="1" precision="FP32">
					<dim>-1</dim>
					<dim>24</dim>
					<dim>184</dim>
					<dim>248</dim>
				</port>
			</input>
			<output>
				<port id="2" precision="FP32" names="input.47">
					<dim>-1</dim>
					<dim>24</dim>
					<dim>184</dim>
					<dim>248</dim>
				</port>
			</output>
		</layer>
		<layer id="55" name="onnx::Conv_2417" type="Const" version="opset1">
			<data element_type="f32" shape="144, 24, 1, 1" offset="65008" size="13824" />
			<output>
				<port id="0" precision="FP32" names="onnx::Conv_2417">
					<dim>144</dim>
					<dim>24</dim>
					<dim>1</dim>
					<dim>1</dim>
				</port>
			</output>
		</layer>
		<layer id="56" name="Conv_171/WithoutBiases" type="Convolution" version="opset1">
			<data strides="1, 1" dilations="1, 1" pads_begin="0, 0" pads_end="0, 0" auto_pad="explicit" />
			<input>
				<port id="0" precision="FP32">
					<dim>-1</dim>
					<dim>24</dim>
					<dim>184</dim>
					<dim>248</dim>
				</port>
				<port id="1" precision="FP32">
					<dim>144</dim>
					<dim>24</dim>
					<dim>1</dim>
					<dim>1</dim>
				</port>
			</input>
			<output>
				<port id="2" precision="FP32">
					<dim>-1</dim>
					<dim>144</dim>
					<dim>184</dim>
					<dim>248</dim>
				</port>
			</output>
		</layer>
		<layer id="57" name="Reshape_921" type="Const" version="opset1">
			<data element_type="f32" shape="1, 144, 1, 1" offset="78832" size="576" />
			<output>
				<port id="0" precision="FP32">
					<dim>1</dim>
					<dim>144</dim>
					<dim>1</dim>
					<dim>1</dim>
				</port>
			</output>
		</layer>
		<layer id="58" name="Conv_171" type="Add" version="opset1">
			<data auto_broadcast="numpy" />
			<input>
				<port id="0" precision="FP32">
					<dim>-1</dim>
					<dim>144</dim>
					<dim>184</dim>
					<dim>248</dim>
				</port>
				<port id="1" precision="FP32">
					<dim>1</dim>
					<dim>144</dim>
					<dim>1</dim>
					<dim>1</dim>
				</port>
			</input>
			<output>
				<port id="2" precision="FP32" names="onnx::Clip_2416">
					<dim>-1</dim>
					<dim>144</dim>
					<dim>184</dim>
					<dim>248</dim>
				</port>
			</output>
		</layer>
		<layer id="59" name="Clip_174" type="Clamp" version="opset1">
			<data min="0" max="6" />
			<input>
				<port id="0" precision="FP32">
					<dim>-1</dim>
					<dim>144</dim>
					<dim>184</dim>
					<dim>248</dim>
				</port>
			</input>
			<output>
				<port id="1" precision="FP32" names="onnx::Conv_416">
					<dim>-1</dim>
					<dim>144</dim>
					<dim>184</dim>
					<dim>248</dim>
				</port>
			</output>
		</layer>
		<layer id="60" name="Reshape_960" type="Const" version="opset1">
			<data element_type="f32" shape="144, 1, 1, 3, 3" offset="79408" size="5184" />
			<output>
				<port id="0" precision="FP32">
					<dim>144</dim>
					<dim>1</dim>
					<dim>1</dim>
					<dim>3</dim>
					<dim>3</dim>
				</port>
			</output>
		</layer>
		<layer id="61" name="Conv_175/WithoutBiases" type="GroupConvolution" version="opset1">
			<data strides="2, 2" pads_begin="1, 1" pads_end="1, 1" dilations="1, 1" auto_pad="explicit" />
			<input>
				<port id="0" precision="FP32">
					<dim>-1</dim>
					<dim>144</dim>
					<dim>184</dim>
					<dim>248</dim>
				</port>
				<port id="1" precision="FP32">
					<dim>144</dim>
					<dim>1</dim>
					<dim>1</dim>
					<dim>3</dim>
					<dim>3</dim>
				</port>
			</input>
			<output>
				<port id="2" precision="FP32">
					<dim>-1</dim>
					<dim>144</dim>
					<dim>92</dim>
					<dim>124</dim>
				</port>
			</output>
		</layer>
		<layer id="62" name="Reshape_1046" type="Const" version="opset1">
			<data element_type="f32" shape="1, 144, 1, 1" offset="84592" size="576" />
			<output>
				<port id="0" precision="FP32">
					<dim>1</dim>
					<dim>144</dim>
					<dim>1</dim>
					<dim>1</dim>
				</port>
			</output>
		</layer>
		<layer id="63" name="Conv_175" type="Add" version="opset1">
			<data auto_broadcast="numpy" />
			<input>
				<port id="0" precision="FP32">
					<dim>-1</dim>
					<dim>144</dim>
					<dim>92</dim>
					<dim>124</dim>
				</port>
				<port id="1" precision="FP32">
					<dim>1</dim>
					<dim>144</dim>
					<dim>1</dim>
					<dim>1</dim>
				</port>
			</input>
			<output>
				<port id="2" precision="FP32" names="onnx::Clip_2419">
					<dim>-1</dim>
					<dim>144</dim>
					<dim>92</dim>
					<dim>124</dim>
				</port>
			</output>
		</layer>
		<layer id="64" name="Clip_178" type="Clamp" version="opset1">
			<data min="0" max="6" />
			<input>
				<port id="0" precision="FP32">
					<dim>-1</dim>
					<dim>144</dim>
					<dim>92</dim>
					<dim>124</dim>
				</port>
			</input>
			<output>
				<port id="1" precision="FP32" names="onnx::Conv_421">
					<dim>-1</dim>
					<dim>144</dim>
					<dim>92</dim>
					<dim>124</dim>
				</port>
			</output>
		</layer>
		<layer id="65" name="onnx::Conv_2423" type="Const" version="opset1">
			<data element_type="f32" shape="32, 144, 1, 1" offset="85168" size="18432" />
			<output>
				<port id="0" precision="FP32" names="onnx::Conv_2423">
					<dim>32</dim>
					<dim>144</dim>
					<dim>1</dim>
					<dim>1</dim>
				</port>
			</output>
		</layer>
		<layer id="66" name="Conv_179/WithoutBiases" type="Convolution" version="opset1">
			<data strides="1, 1" dilations="1, 1" pads_begin="0, 0" pads_end="0, 0" auto_pad="explicit" />
			<input>
				<port id="0" precision="FP32">
					<dim>-1</dim>
					<dim>144</dim>
					<dim>92</dim>
					<dim>124</dim>
				</port>
				<port id="1" precision="FP32">
					<dim>32</dim>
					<dim>144</dim>
					<dim>1</dim>
					<dim>1</dim>
				</port>
			</input>
			<output>
				<port id="2" precision="FP32">
					<dim>-1</dim>
					<dim>32</dim>
					<dim>92</dim>
					<dim>124</dim>
				</port>
			</output>
		</layer>
		<layer id="67" name="Reshape_1098" type="Const" version="opset1">
			<data element_type="f32" shape="1, 32, 1, 1" offset="103600" size="128" />
			<output>
				<port id="0" precision="FP32">
					<dim>1</dim>
					<dim>32</dim>
					<dim>1</dim>
					<dim>1</dim>
				</port>
			</output>
		</layer>
		<layer id="68" name="Conv_179" type="Add" version="opset1">
			<data auto_broadcast="numpy" />
			<input>
				<port id="0" precision="FP32">
					<dim>-1</dim>
					<dim>32</dim>
					<dim>92</dim>
					<dim>124</dim>
				</port>
				<port id="1" precision="FP32">
					<dim>1</dim>
					<dim>32</dim>
					<dim>1</dim>
					<dim>1</dim>
				</port>
			</input>
			<output>
				<port id="2" precision="FP32" names="input.63">
					<dim>-1</dim>
					<dim>32</dim>
					<dim>92</dim>
					<dim>124</dim>
				</port>
			</output>
		</layer>
		<layer id="69" name="onnx::Conv_2426" type="Const" version="opset1">
			<data element_type="f32" shape="192, 32, 1, 1" offset="103728" size="24576" />
			<output>
				<port id="0" precision="FP32" names="onnx::Conv_2426">
					<dim>192</dim>
					<dim>32</dim>
					<dim>1</dim>
					<dim>1</dim>
				</port>
			</output>
		</layer>
		<layer id="70" name="Conv_180/WithoutBiases" type="Convolution" version="opset1">
			<data strides="1, 1" dilations="1, 1" pads_begin="0, 0" pads_end="0, 0" auto_pad="explicit" />
			<input>
				<port id="0" precision="FP32">
					<dim>-1</dim>
					<dim>32</dim>
					<dim>92</dim>
					<dim>124</dim>
				</port>
				<port id="1" precision="FP32">
					<dim>192</dim>
					<dim>32</dim>
					<dim>1</dim>
					<dim>1</dim>
				</port>
			</input>
			<output>
				<port id="2" precision="FP32">
					<dim>-1</dim>
					<dim>192</dim>
					<dim>92</dim>
					<dim>124</dim>
				</port>
			</output>
		</layer>
		<layer id="71" name="Reshape_1146" type="Const" version="opset1">
			<data element_type="f32" shape="1, 192, 1, 1" offset="128304" size="768" />
			<output>
				<port id="0" precision="FP32">
					<dim>1</dim>
					<dim>192</dim>
					<dim>1</dim>
					<dim>1</dim>
				</port>
			</output>
		</layer>
		<layer id="72" name="Conv_180" type="Add" version="opset1">
			<data auto_broadcast="numpy" />
			<input>
				<port id="0" precision="FP32">
					<dim>-1</dim>
					<dim>192</dim>
					<dim>92</dim>
					<dim>124</dim>
				</port>
				<port id="1" precision="FP32">
					<dim>1</dim>
					<dim>192</dim>
					<dim>1</dim>
					<dim>1</dim>
				</port>
			</input>
			<output>
				<port id="2" precision="FP32" names="onnx::Clip_2425">
					<dim>-1</dim>
					<dim>192</dim>
					<dim>92</dim>
					<dim>124</dim>
				</port>
			</output>
		</layer>
		<layer id="73" name="Clip_183" type="Clamp" version="opset1">
			<data min="0" max="6" />
			<input>
				<port id="0" precision="FP32">
					<dim>-1</dim>
					<dim>192</dim>
					<dim>92</dim>
					<dim>124</dim>
				</port>
			</input>
			<output>
				<port id="1" precision="FP32" names="onnx::Conv_428">
					<dim>-1</dim>
					<dim>192</dim>
					<dim>92</dim>
					<dim>124</dim>
				</port>
			</output>
		</layer>
		<layer id="74" name="Reshape_1185" type="Const" version="opset1">
			<data element_type="f32" shape="192, 1, 1, 3, 3" offset="129072" size="6912" />
			<output>
				<port id="0" precision="FP32">
					<dim>192</dim>
					<dim>1</dim>
					<dim>1</dim>
					<dim>3</dim>
					<dim>3</dim>
				</port>
			</output>
		</layer>
		<layer id="75" name="Conv_184/WithoutBiases" type="GroupConvolution" version="opset1">
			<data strides="1, 1" pads_begin="1, 1" pads_end="1, 1" dilations="1, 1" auto_pad="explicit" />
			<input>
				<port id="0" precision="FP32">
					<dim>-1</dim>
					<dim>192</dim>
					<dim>92</dim>
					<dim>124</dim>
				</port>
				<port id="1" precision="FP32">
					<dim>192</dim>
					<dim>1</dim>
					<dim>1</dim>
					<dim>3</dim>
					<dim>3</dim>
				</port>
			</input>
			<output>
				<port id="2" precision="FP32">
					<dim>-1</dim>
					<dim>192</dim>
					<dim>92</dim>
					<dim>124</dim>
				</port>
			</output>
		</layer>
		<layer id="76" name="Reshape_1271" type="Const" version="opset1">
			<data element_type="f32" shape="1, 192, 1, 1" offset="135984" size="768" />
			<output>
				<port id="0" precision="FP32">
					<dim>1</dim>
					<dim>192</dim>
					<dim>1</dim>
					<dim>1</dim>
				</port>
			</output>
		</layer>
		<layer id="77" name="Conv_184" type="Add" version="opset1">
			<data auto_broadcast="numpy" />
			<input>
				<port id="0" precision="FP32">
					<dim>-1</dim>
					<dim>192</dim>
					<dim>92</dim>
					<dim>124</dim>
				</port>
				<port id="1" precision="FP32">
					<dim>1</dim>
					<dim>192</dim>
					<dim>1</dim>
					<dim>1</dim>
				</port>
			</input>
			<output>
				<port id="2" precision="FP32" names="onnx::Clip_2428">
					<dim>-1</dim>
					<dim>192</dim>
					<dim>92</dim>
					<dim>124</dim>
				</port>
			</output>
		</layer>
		<layer id="78" name="Clip_187" type="Clamp" version="opset1">
			<data min="0" max="6" />
			<input>
				<port id="0" precision="FP32">
					<dim>-1</dim>
					<dim>192</dim>
					<dim>92</dim>
					<dim>124</dim>
				</port>
			</input>
			<output>
				<port id="1" precision="FP32" names="onnx::Conv_433">
					<dim>-1</dim>
					<dim>192</dim>
					<dim>92</dim>
					<dim>124</dim>
				</port>
			</output>
		</layer>
		<layer id="79" name="onnx::Conv_2432" type="Const" version="opset1">
			<data element_type="f32" shape="32, 192, 1, 1" offset="136752" size="24576" />
			<output>
				<port id="0" precision="FP32" names="onnx::Conv_2432">
					<dim>32</dim>
					<dim>192</dim>
					<dim>1</dim>
					<dim>1</dim>
				</port>
			</output>
		</layer>
		<layer id="80" name="Conv_188/WithoutBiases" type="Convolution" version="opset1">
			<data strides="1, 1" dilations="1, 1" pads_begin="0, 0" pads_end="0, 0" auto_pad="explicit" />
			<input>
				<port id="0" precision="FP32">
					<dim>-1</dim>
					<dim>192</dim>
					<dim>92</dim>
					<dim>124</dim>
				</port>
				<port id="1" precision="FP32">
					<dim>32</dim>
					<dim>192</dim>
					<dim>1</dim>
					<dim>1</dim>
				</port>
			</input>
			<output>
				<port id="2" precision="FP32">
					<dim>-1</dim>
					<dim>32</dim>
					<dim>92</dim>
					<dim>124</dim>
				</port>
			</output>
		</layer>
		<layer id="81" name="Reshape_1323" type="Const" version="opset1">
			<data element_type="f32" shape="1, 32, 1, 1" offset="161328" size="128" />
			<output>
				<port id="0" precision="FP32">
					<dim>1</dim>
					<dim>32</dim>
					<dim>1</dim>
					<dim>1</dim>
				</port>
			</output>
		</layer>
		<layer id="82" name="Conv_188" type="Add" version="opset1">
			<data auto_broadcast="numpy" />
			<input>
				<port id="0" precision="FP32">
					<dim>-1</dim>
					<dim>32</dim>
					<dim>92</dim>
					<dim>124</dim>
				</port>
				<port id="1" precision="FP32">
					<dim>1</dim>
					<dim>32</dim>
					<dim>1</dim>
					<dim>1</dim>
				</port>
			</input>
			<output>
				<port id="2" precision="FP32" names="onnx::Add_2431">
					<dim>-1</dim>
					<dim>32</dim>
					<dim>92</dim>
					<dim>124</dim>
				</port>
			</output>
		</layer>
		<layer id="83" name="Add_189" type="Add" version="opset1">
			<data auto_broadcast="numpy" />
			<input>
				<port id="0" precision="FP32">
					<dim>-1</dim>
					<dim>32</dim>
					<dim>92</dim>
					<dim>124</dim>
				</port>
				<port id="1" precision="FP32">
					<dim>-1</dim>
					<dim>32</dim>
					<dim>92</dim>
					<dim>124</dim>
				</port>
			</input>
			<output>
				<port id="2" precision="FP32" names="input.79">
					<dim>-1</dim>
					<dim>32</dim>
					<dim>92</dim>
					<dim>124</dim>
				</port>
			</output>
		</layer>
		<layer id="84" name="onnx::Conv_2435" type="Const" version="opset1">
			<data element_type="f32" shape="192, 32, 1, 1" offset="161456" size="24576" />
			<output>
				<port id="0" precision="FP32" names="onnx::Conv_2435">
					<dim>192</dim>
					<dim>32</dim>
					<dim>1</dim>
					<dim>1</dim>
				</port>
			</output>
		</layer>
		<layer id="85" name="Conv_190/WithoutBiases" type="Convolution" version="opset1">
			<data strides="1, 1" dilations="1, 1" pads_begin="0, 0" pads_end="0, 0" auto_pad="explicit" />
			<input>
				<port id="0" precision="FP32">
					<dim>-1</dim>
					<dim>32</dim>
					<dim>92</dim>
					<dim>124</dim>
				</port>
				<port id="1" precision="FP32">
					<dim>192</dim>
					<dim>32</dim>
					<dim>1</dim>
					<dim>1</dim>
				</port>
			</input>
			<output>
				<port id="2" precision="FP32">
					<dim>-1</dim>
					<dim>192</dim>
					<dim>92</dim>
					<dim>124</dim>
				</port>
			</output>
		</layer>
		<layer id="86" name="Reshape_1372" type="Const" version="opset1">
			<data element_type="f32" shape="1, 192, 1, 1" offset="186032" size="768" />
			<output>
				<port id="0" precision="FP32">
					<dim>1</dim>
					<dim>192</dim>
					<dim>1</dim>
					<dim>1</dim>
				</port>
			</output>
		</layer>
		<layer id="87" name="Conv_190" type="Add" version="opset1">
			<data auto_broadcast="numpy" />
			<input>
				<port id="0" precision="FP32">
					<dim>-1</dim>
					<dim>192</dim>
					<dim>92</dim>
					<dim>124</dim>
				</port>
				<port id="1" precision="FP32">
					<dim>1</dim>
					<dim>192</dim>
					<dim>1</dim>
					<dim>1</dim>
				</port>
			</input>
			<output>
				<port id="2" precision="FP32" names="onnx::Clip_2434">
					<dim>-1</dim>
					<dim>192</dim>
					<dim>92</dim>
					<dim>124</dim>
				</port>
			</output>
		</layer>
		<layer id="88" name="Clip_193" type="Clamp" version="opset1">
			<data min="0" max="6" />
			<input>
				<port id="0" precision="FP32">
					<dim>-1</dim>
					<dim>192</dim>
					<dim>92</dim>
					<dim>124</dim>
				</port>
			</input>
			<output>
				<port id="1" precision="FP32" names="onnx::Conv_441">
					<dim>-1</dim>
					<dim>192</dim>
					<dim>92</dim>
					<dim>124</dim>
				</port>
			</output>
		</layer>
		<layer id="89" name="Reshape_1411" type="Const" version="opset1">
			<data element_type="f32" shape="192, 1, 1, 3, 3" offset="186800" size="6912" />
			<output>
				<port id="0" precision="FP32">
					<dim>192</dim>
					<dim>1</dim>
					<dim>1</dim>
					<dim>3</dim>
					<dim>3</dim>
				</port>
			</output>
		</layer>
		<layer id="90" name="Conv_194/WithoutBiases" type="GroupConvolution" version="opset1">
			<data strides="1, 1" pads_begin="1, 1" pads_end="1, 1" dilations="1, 1" auto_pad="explicit" />
			<input>
				<port id="0" precision="FP32">
					<dim>-1</dim>
					<dim>192</dim>
					<dim>92</dim>
					<dim>124</dim>
				</port>
				<port id="1" precision="FP32">
					<dim>192</dim>
					<dim>1</dim>
					<dim>1</dim>
					<dim>3</dim>
					<dim>3</dim>
				</port>
			</input>
			<output>
				<port id="2" precision="FP32">
					<dim>-1</dim>
					<dim>192</dim>
					<dim>92</dim>
					<dim>124</dim>
				</port>
			</output>
		</layer>
		<layer id="91" name="Reshape_1497" type="Const" version="opset1">
			<data element_type="f32" shape="1, 192, 1, 1" offset="193712" size="768" />
			<output>
				<port id="0" precision="FP32">
					<dim>1</dim>
					<dim>192</dim>
					<dim>1</dim>
					<dim>1</dim>
				</port>
			</output>
		</layer>
		<layer id="92" name="Conv_194" type="Add" version="opset1">
			<data auto_broadcast="numpy" />
			<input>
				<port id="0" precision="FP32">
					<dim>-1</dim>
					<dim>192</dim>
					<dim>92</dim>
					<dim>124</dim>
				</port>
				<port id="1" precision="FP32">
					<dim>1</dim>
					<dim>192</dim>
					<dim>1</dim>
					<dim>1</dim>
				</port>
			</input>
			<output>
				<port id="2" precision="FP32" names="onnx::Clip_2437">
					<dim>-1</dim>
					<dim>192</dim>
					<dim>92</dim>
					<dim>124</dim>
				</port>
			</output>
		</layer>
		<layer id="93" name="Clip_197" type="Clamp" version="opset1">
			<data min="0" max="6" />
			<input>
				<port id="0" precision="FP32">
					<dim>-1</dim>
					<dim>192</dim>
					<dim>92</dim>
					<dim>124</dim>
				</port>
			</input>
			<output>
				<port id="1" precision="FP32" names="onnx::Conv_446">
					<dim>-1</dim>
					<dim>192</dim>
					<dim>92</dim>
					<dim>124</dim>
				</port>
			</output>
		</layer>
		<layer id="94" name="onnx::Conv_2441" type="Const" version="opset1">
			<data element_type="f32" shape="32, 192, 1, 1" offset="194480" size="24576" />
			<output>
				<port id="0" precision="FP32" names="onnx::Conv_2441">
					<dim>32</dim>
					<dim>192</dim>
					<dim>1</dim>
					<dim>1</dim>
				</port>
			</output>
		</layer>
		<layer id="95" name="Conv_198/WithoutBiases" type="Convolution" version="opset1">
			<data strides="1, 1" dilations="1, 1" pads_begin="0, 0" pads_end="0, 0" auto_pad="explicit" />
			<input>
				<port id="0" precision="FP32">
					<dim>-1</dim>
					<dim>192</dim>
					<dim>92</dim>
					<dim>124</dim>
				</port>
				<port id="1" precision="FP32">
					<dim>32</dim>
					<dim>192</dim>
					<dim>1</dim>
					<dim>1</dim>
				</port>
			</input>
			<output>
				<port id="2" precision="FP32">
					<dim>-1</dim>
					<dim>32</dim>
					<dim>92</dim>
					<dim>124</dim>
				</port>
			</output>
		</layer>
		<layer id="96" name="Reshape_1549" type="Const" version="opset1">
			<data element_type="f32" shape="1, 32, 1, 1" offset="219056" size="128" />
			<output>
				<port id="0" precision="FP32">
					<dim>1</dim>
					<dim>32</dim>
					<dim>1</dim>
					<dim>1</dim>
				</port>
			</output>
		</layer>
		<layer id="97" name="Conv_198" type="Add" version="opset1">
			<data auto_broadcast="numpy" />
			<input>
				<port id="0" precision="FP32">
					<dim>-1</dim>
					<dim>32</dim>
					<dim>92</dim>
					<dim>124</dim>
				</port>
				<port id="1" precision="FP32">
					<dim>1</dim>
					<dim>32</dim>
					<dim>1</dim>
					<dim>1</dim>
				</port>
			</input>
			<output>
				<port id="2" precision="FP32" names="onnx::Add_2440">
					<dim>-1</dim>
					<dim>32</dim>
					<dim>92</dim>
					<dim>124</dim>
				</port>
			</output>
		</layer>
		<layer id="98" name="Add_199" type="Add" version="opset1">
			<data auto_broadcast="numpy" />
			<input>
				<port id="0" precision="FP32">
					<dim>-1</dim>
					<dim>32</dim>
					<dim>92</dim>
					<dim>124</dim>
				</port>
				<port id="1" precision="FP32">
					<dim>-1</dim>
					<dim>32</dim>
					<dim>92</dim>
					<dim>124</dim>
				</port>
			</input>
			<output>
				<port id="2" precision="FP32" names="input.95">
					<dim>-1</dim>
					<dim>32</dim>
					<dim>92</dim>
					<dim>124</dim>
				</port>
			</output>
		</layer>
		<layer id="99" name="neck.lateral_convs.0.conv.weight" type="Const" version="opset1">
			<data element_type="f32" shape="64, 32, 1, 1" offset="219184" size="8192" />
			<output>
				<port id="0" precision="FP32" names="neck.lateral_convs.0.conv.weight">
					<dim>64</dim>
					<dim>32</dim>
					<dim>1</dim>
					<dim>1</dim>
				</port>
			</output>
		</layer>
		<layer id="100" name="Conv_306/WithoutBiases" type="Convolution" version="opset1">
			<data strides="1, 1" dilations="1, 1" pads_begin="0, 0" pads_end="0, 0" auto_pad="explicit" />
			<input>
				<port id="0" precision="FP32">
					<dim>-1</dim>
					<dim>32</dim>
					<dim>92</dim>
					<dim>124</dim>
				</port>
				<port id="1" precision="FP32">
					<dim>64</dim>
					<dim>32</dim>
					<dim>1</dim>
					<dim>1</dim>
				</port>
			</input>
			<output>
				<port id="2" precision="FP32">
					<dim>-1</dim>
					<dim>64</dim>
					<dim>92</dim>
					<dim>124</dim>
				</port>
			</output>
		</layer>
		<layer id="101" name="Reshape_4080" type="Const" version="opset1">
			<data element_type="f32" shape="1, 64, 1, 1" offset="227376" size="256" />
			<output>
				<port id="0" precision="FP32">
					<dim>1</dim>
					<dim>64</dim>
					<dim>1</dim>
					<dim>1</dim>
				</port>
			</output>
		</layer>
		<layer id="102" name="Conv_306" type="Add" version="opset1">
			<data auto_broadcast="numpy" />
			<input>
				<port id="0" precision="FP32">
					<dim>-1</dim>
					<dim>64</dim>
					<dim>92</dim>
					<dim>124</dim>
				</port>
				<port id="1" precision="FP32">
					<dim>1</dim>
					<dim>64</dim>
					<dim>1</dim>
					<dim>1</dim>
				</port>
			</input>
			<output>
				<port id="2" precision="FP32" names="onnx::Shape_589">
					<dim>-1</dim>
					<dim>64</dim>
					<dim>92</dim>
					<dim>124</dim>
				</port>
			</output>
		</layer>
		<layer id="103" name="onnx::Conv_2444" type="Const" version="opset1">
			<data element_type="f32" shape="192, 32, 1, 1" offset="227632" size="24576" />
			<output>
				<port id="0" precision="FP32" names="onnx::Conv_2444">
					<dim>192</dim>
					<dim>32</dim>
					<dim>1</dim>
					<dim>1</dim>
				</port>
			</output>
		</layer>
		<layer id="104" name="Conv_200/WithoutBiases" type="Convolution" version="opset1">
			<data strides="1, 1" dilations="1, 1" pads_begin="0, 0" pads_end="0, 0" auto_pad="explicit" />
			<input>
				<port id="0" precision="FP32">
					<dim>-1</dim>
					<dim>32</dim>
					<dim>92</dim>
					<dim>124</dim>
				</port>
				<port id="1" precision="FP32">
					<dim>192</dim>
					<dim>32</dim>
					<dim>1</dim>
					<dim>1</dim>
				</port>
			</input>
			<output>
				<port id="2" precision="FP32">
					<dim>-1</dim>
					<dim>192</dim>
					<dim>92</dim>
					<dim>124</dim>
				</port>
			</output>
		</layer>
		<layer id="105" name="Reshape_1598" type="Const" version="opset1">
			<data element_type="f32" shape="1, 192, 1, 1" offset="252208" size="768" />
			<output>
				<port id="0" precision="FP32">
					<dim>1</dim>
					<dim>192</dim>
					<dim>1</dim>
					<dim>1</dim>
				</port>
			</output>
		</layer>
		<layer id="106" name="Conv_200" type="Add" version="opset1">
			<data auto_broadcast="numpy" />
			<input>
				<port id="0" precision="FP32">
					<dim>-1</dim>
					<dim>192</dim>
					<dim>92</dim>
					<dim>124</dim>
				</port>
				<port id="1" precision="FP32">
					<dim>1</dim>
					<dim>192</dim>
					<dim>1</dim>
					<dim>1</dim>
				</port>
			</input>
			<output>
				<port id="2" precision="FP32" names="onnx::Clip_2443">
					<dim>-1</dim>
					<dim>192</dim>
					<dim>92</dim>
					<dim>124</dim>
				</port>
			</output>
		</layer>
		<layer id="107" name="Clip_203" type="Clamp" version="opset1">
			<data min="0" max="6" />
			<input>
				<port id="0" precision="FP32">
					<dim>-1</dim>
					<dim>192</dim>
					<dim>92</dim>
					<dim>124</dim>
				</port>
			</input>
			<output>
				<port id="1" precision="FP32" names="onnx::Conv_454">
					<dim>-1</dim>
					<dim>192</dim>
					<dim>92</dim>
					<dim>124</dim>
				</port>
			</output>
		</layer>
		<layer id="108" name="Reshape_1637" type="Const" version="opset1">
			<data element_type="f32" shape="192, 1, 1, 3, 3" offset="252976" size="6912" />
			<output>
				<port id="0" precision="FP32">
					<dim>192</dim>
					<dim>1</dim>
					<dim>1</dim>
					<dim>3</dim>
					<dim>3</dim>
				</port>
			</output>
		</layer>
		<layer id="109" name="Conv_204/WithoutBiases" type="GroupConvolution" version="opset1">
			<data strides="2, 2" pads_begin="1, 1" pads_end="1, 1" dilations="1, 1" auto_pad="explicit" />
			<input>
				<port id="0" precision="FP32">
					<dim>-1</dim>
					<dim>192</dim>
					<dim>92</dim>
					<dim>124</dim>
				</port>
				<port id="1" precision="FP32">
					<dim>192</dim>
					<dim>1</dim>
					<dim>1</dim>
					<dim>3</dim>
					<dim>3</dim>
				</port>
			</input>
			<output>
				<port id="2" precision="FP32">
					<dim>-1</dim>
					<dim>192</dim>
					<dim>46</dim>
					<dim>62</dim>
				</port>
			</output>
		</layer>
		<layer id="110" name="Reshape_1723" type="Const" version="opset1">
			<data element_type="f32" shape="1, 192, 1, 1" offset="259888" size="768" />
			<output>
				<port id="0" precision="FP32">
					<dim>1</dim>
					<dim>192</dim>
					<dim>1</dim>
					<dim>1</dim>
				</port>
			</output>
		</layer>
		<layer id="111" name="Conv_204" type="Add" version="opset1">
			<data auto_broadcast="numpy" />
			<input>
				<port id="0" precision="FP32">
					<dim>-1</dim>
					<dim>192</dim>
					<dim>46</dim>
					<dim>62</dim>
				</port>
				<port id="1" precision="FP32">
					<dim>1</dim>
					<dim>192</dim>
					<dim>1</dim>
					<dim>1</dim>
				</port>
			</input>
			<output>
				<port id="2" precision="FP32" names="onnx::Clip_2446">
					<dim>-1</dim>
					<dim>192</dim>
					<dim>46</dim>
					<dim>62</dim>
				</port>
			</output>
		</layer>
		<layer id="112" name="Clip_207" type="Clamp" version="opset1">
			<data min="0" max="6" />
			<input>
				<port id="0" precision="FP32">
					<dim>-1</dim>
					<dim>192</dim>
					<dim>46</dim>
					<dim>62</dim>
				</port>
			</input>
			<output>
				<port id="1" precision="FP32" names="onnx::Conv_459">
					<dim>-1</dim>
					<dim>192</dim>
					<dim>46</dim>
					<dim>62</dim>
				</port>
			</output>
		</layer>
		<layer id="113" name="onnx::Conv_2450" type="Const" version="opset1">
			<data element_type="f32" shape="64, 192, 1, 1" offset="260656" size="49152" />
			<output>
				<port id="0" precision="FP32" names="onnx::Conv_2450">
					<dim>64</dim>
					<dim>192</dim>
					<dim>1</dim>
					<dim>1</dim>
				</port>
			</output>
		</layer>
		<layer id="114" name="Conv_208/WithoutBiases" type="Convolution" version="opset1">
			<data strides="1, 1" dilations="1, 1" pads_begin="0, 0" pads_end="0, 0" auto_pad="explicit" />
			<input>
				<port id="0" precision="FP32">
					<dim>-1</dim>
					<dim>192</dim>
					<dim>46</dim>
					<dim>62</dim>
				</port>
				<port id="1" precision="FP32">
					<dim>64</dim>
					<dim>192</dim>
					<dim>1</dim>
					<dim>1</dim>
				</port>
			</input>
			<output>
				<port id="2" precision="FP32">
					<dim>-1</dim>
					<dim>64</dim>
					<dim>46</dim>
					<dim>62</dim>
				</port>
			</output>
		</layer>
		<layer id="115" name="Reshape_1775" type="Const" version="opset1">
			<data element_type="f32" shape="1, 64, 1, 1" offset="309808" size="256" />
			<output>
				<port id="0" precision="FP32">
					<dim>1</dim>
					<dim>64</dim>
					<dim>1</dim>
					<dim>1</dim>
				</port>
			</output>
		</layer>
		<layer id="116" name="Conv_208" type="Add" version="opset1">
			<data auto_broadcast="numpy" />
			<input>
				<port id="0" precision="FP32">
					<dim>-1</dim>
					<dim>64</dim>
					<dim>46</dim>
					<dim>62</dim>
				</port>
				<port id="1" precision="FP32">
					<dim>1</dim>
					<dim>64</dim>
					<dim>1</dim>
					<dim>1</dim>
				</port>
			</input>
			<output>
				<port id="2" precision="FP32" names="input.111">
					<dim>-1</dim>
					<dim>64</dim>
					<dim>46</dim>
					<dim>62</dim>
				</port>
			</output>
		</layer>
		<layer id="117" name="onnx::Conv_2453" type="Const" version="opset1">
			<data element_type="f32" shape="384, 64, 1, 1" offset="310064" size="98304" />
			<output>
				<port id="0" precision="FP32" names="onnx::Conv_2453">
					<dim>384</dim>
					<dim>64</dim>
					<dim>1</dim>
					<dim>1</dim>
				</port>
			</output>
		</layer>
		<layer id="118" name="Conv_209/WithoutBiases" type="Convolution" version="opset1">
			<data strides="1, 1" dilations="1, 1" pads_begin="0, 0" pads_end="0, 0" auto_pad="explicit" />
			<input>
				<port id="0" precision="FP32">
					<dim>-1</dim>
					<dim>64</dim>
					<dim>46</dim>
					<dim>62</dim>
				</port>
				<port id="1" precision="FP32">
					<dim>384</dim>
					<dim>64</dim>
					<dim>1</dim>
					<dim>1</dim>
				</port>
			</input>
			<output>
				<port id="2" precision="FP32">
					<dim>-1</dim>
					<dim>384</dim>
					<dim>46</dim>
					<dim>62</dim>
				</port>
			</output>
		</layer>
		<layer id="119" name="Reshape_1823" type="Const" version="opset1">
			<data element_type="f32" shape="1, 384, 1, 1" offset="408368" size="1536" />
			<output>
				<port id="0" precision="FP32">
					<dim>1</dim>
					<dim>384</dim>
					<dim>1</dim>
					<dim>1</dim>
				</port>
			</output>
		</layer>
		<layer id="120" name="Conv_209" type="Add" version="opset1">
			<data auto_broadcast="numpy" />
			<input>
				<port id="0" precision="FP32">
					<dim>-1</dim>
					<dim>384</dim>
					<dim>46</dim>
					<dim>62</dim>
				</port>
				<port id="1" precision="FP32">
					<dim>1</dim>
					<dim>384</dim>
					<dim>1</dim>
					<dim>1</dim>
				</port>
			</input>
			<output>
				<port id="2" precision="FP32" names="onnx::Clip_2452">
					<dim>-1</dim>
					<dim>384</dim>
					<dim>46</dim>
					<dim>62</dim>
				</port>
			</output>
		</layer>
		<layer id="121" name="Clip_212" type="Clamp" version="opset1">
			<data min="0" max="6" />
			<input>
				<port id="0" precision="FP32">
					<dim>-1</dim>
					<dim>384</dim>
					<dim>46</dim>
					<dim>62</dim>
				</port>
			</input>
			<output>
				<port id="1" precision="FP32" names="onnx::Conv_466">
					<dim>-1</dim>
					<dim>384</dim>
					<dim>46</dim>
					<dim>62</dim>
				</port>
			</output>
		</layer>
		<layer id="122" name="Reshape_1862" type="Const" version="opset1">
			<data element_type="f32" shape="384, 1, 1, 3, 3" offset="409904" size="13824" />
			<output>
				<port id="0" precision="FP32">
					<dim>384</dim>
					<dim>1</dim>
					<dim>1</dim>
					<dim>3</dim>
					<dim>3</dim>
				</port>
			</output>
		</layer>
		<layer id="123" name="Conv_213/WithoutBiases" type="GroupConvolution" version="opset1">
			<data strides="1, 1" pads_begin="1, 1" pads_end="1, 1" dilations="1, 1" auto_pad="explicit" />
			<input>
				<port id="0" precision="FP32">
					<dim>-1</dim>
					<dim>384</dim>
					<dim>46</dim>
					<dim>62</dim>
				</port>
				<port id="1" precision="FP32">
					<dim>384</dim>
					<dim>1</dim>
					<dim>1</dim>
					<dim>3</dim>
					<dim>3</dim>
				</port>
			</input>
			<output>
				<port id="2" precision="FP32">
					<dim>-1</dim>
					<dim>384</dim>
					<dim>46</dim>
					<dim>62</dim>
				</port>
			</output>
		</layer>
		<layer id="124" name="Reshape_1948" type="Const" version="opset1">
			<data element_type="f32" shape="1, 384, 1, 1" offset="423728" size="1536" />
			<output>
				<port id="0" precision="FP32">
					<dim>1</dim>
					<dim>384</dim>
					<dim>1</dim>
					<dim>1</dim>
				</port>
			</output>
		</layer>
		<layer id="125" name="Conv_213" type="Add" version="opset1">
			<data auto_broadcast="numpy" />
			<input>
				<port id="0" precision="FP32">
					<dim>-1</dim>
					<dim>384</dim>
					<dim>46</dim>
					<dim>62</dim>
				</port>
				<port id="1" precision="FP32">
					<dim>1</dim>
					<dim>384</dim>
					<dim>1</dim>
					<dim>1</dim>
				</port>
			</input>
			<output>
				<port id="2" precision="FP32" names="onnx::Clip_2455">
					<dim>-1</dim>
					<dim>384</dim>
					<dim>46</dim>
					<dim>62</dim>
				</port>
			</output>
		</layer>
		<layer id="126" name="Clip_216" type="Clamp" version="opset1">
			<data min="0" max="6" />
			<input>
				<port id="0" precision="FP32">
					<dim>-1</dim>
					<dim>384</dim>
					<dim>46</dim>
					<dim>62</dim>
				</port>
			</input>
			<output>
				<port id="1" precision="FP32" names="onnx::Conv_471">
					<dim>-1</dim>
					<dim>384</dim>
					<dim>46</dim>
					<dim>62</dim>
				</port>
			</output>
		</layer>
		<layer id="127" name="onnx::Conv_2459" type="Const" version="opset1">
			<data element_type="f32" shape="64, 384, 1, 1" offset="425264" size="98304" />
			<output>
				<port id="0" precision="FP32" names="onnx::Conv_2459">
					<dim>64</dim>
					<dim>384</dim>
					<dim>1</dim>
					<dim>1</dim>
				</port>
			</output>
		</layer>
		<layer id="128" name="Conv_217/WithoutBiases" type="Convolution" version="opset1">
			<data strides="1, 1" dilations="1, 1" pads_begin="0, 0" pads_end="0, 0" auto_pad="explicit" />
			<input>
				<port id="0" precision="FP32">
					<dim>-1</dim>
					<dim>384</dim>
					<dim>46</dim>
					<dim>62</dim>
				</port>
				<port id="1" precision="FP32">
					<dim>64</dim>
					<dim>384</dim>
					<dim>1</dim>
					<dim>1</dim>
				</port>
			</input>
			<output>
				<port id="2" precision="FP32">
					<dim>-1</dim>
					<dim>64</dim>
					<dim>46</dim>
					<dim>62</dim>
				</port>
			</output>
		</layer>
		<layer id="129" name="Reshape_2000" type="Const" version="opset1">
			<data element_type="f32" shape="1, 64, 1, 1" offset="523568" size="256" />
			<output>
				<port id="0" precision="FP32">
					<dim>1</dim>
					<dim>64</dim>
					<dim>1</dim>
					<dim>1</dim>
				</port>
			</output>
		</layer>
		<layer id="130" name="Conv_217" type="Add" version="opset1">
			<data auto_broadcast="numpy" />
			<input>
				<port id="0" precision="FP32">
					<dim>-1</dim>
					<dim>64</dim>
					<dim>46</dim>
					<dim>62</dim>
				</port>
				<port id="1" precision="FP32">
					<dim>1</dim>
					<dim>64</dim>
					<dim>1</dim>
					<dim>1</dim>
				</port>
			</input>
			<output>
				<port id="2" precision="FP32" names="onnx::Add_2458">
					<dim>-1</dim>
					<dim>64</dim>
					<dim>46</dim>
					<dim>62</dim>
				</port>
			</output>
		</layer>
		<layer id="131" name="Add_218" type="Add" version="opset1">
			<data auto_broadcast="numpy" />
			<input>
				<port id="0" precision="FP32">
					<dim>-1</dim>
					<dim>64</dim>
					<dim>46</dim>
					<dim>62</dim>
				</port>
				<port id="1" precision="FP32">
					<dim>-1</dim>
					<dim>64</dim>
					<dim>46</dim>
					<dim>62</dim>
				</port>
			</input>
			<output>
				<port id="2" precision="FP32" names="input.127">
					<dim>-1</dim>
					<dim>64</dim>
					<dim>46</dim>
					<dim>62</dim>
				</port>
			</output>
		</layer>
		<layer id="132" name="onnx::Conv_2462" type="Const" version="opset1">
			<data element_type="f32" shape="384, 64, 1, 1" offset="523824" size="98304" />
			<output>
				<port id="0" precision="FP32" names="onnx::Conv_2462">
					<dim>384</dim>
					<dim>64</dim>
					<dim>1</dim>
					<dim>1</dim>
				</port>
			</output>
		</layer>
		<layer id="133" name="Conv_219/WithoutBiases" type="Convolution" version="opset1">
			<data strides="1, 1" dilations="1, 1" pads_begin="0, 0" pads_end="0, 0" auto_pad="explicit" />
			<input>
				<port id="0" precision="FP32">
					<dim>-1</dim>
					<dim>64</dim>
					<dim>46</dim>
					<dim>62</dim>
				</port>
				<port id="1" precision="FP32">
					<dim>384</dim>
					<dim>64</dim>
					<dim>1</dim>
					<dim>1</dim>
				</port>
			</input>
			<output>
				<port id="2" precision="FP32">
					<dim>-1</dim>
					<dim>384</dim>
					<dim>46</dim>
					<dim>62</dim>
				</port>
			</output>
		</layer>
		<layer id="134" name="Reshape_2049" type="Const" version="opset1">
			<data element_type="f32" shape="1, 384, 1, 1" offset="622128" size="1536" />
			<output>
				<port id="0" precision="FP32">
					<dim>1</dim>
					<dim>384</dim>
					<dim>1</dim>
					<dim>1</dim>
				</port>
			</output>
		</layer>
		<layer id="135" name="Conv_219" type="Add" version="opset1">
			<data auto_broadcast="numpy" />
			<input>
				<port id="0" precision="FP32">
					<dim>-1</dim>
					<dim>384</dim>
					<dim>46</dim>
					<dim>62</dim>
				</port>
				<port id="1" precision="FP32">
					<dim>1</dim>
					<dim>384</dim>
					<dim>1</dim>
					<dim>1</dim>
				</port>
			</input>
			<output>
				<port id="2" precision="FP32" names="onnx::Clip_2461">
					<dim>-1</dim>
					<dim>384</dim>
					<dim>46</dim>
					<dim>62</dim>
				</port>
			</output>
		</layer>
		<layer id="136" name="Clip_222" type="Clamp" version="opset1">
			<data min="0" max="6" />
			<input>
				<port id="0" precision="FP32">
					<dim>-1</dim>
					<dim>384</dim>
					<dim>46</dim>
					<dim>62</dim>
				</port>
			</input>
			<output>
				<port id="1" precision="FP32" names="onnx::Conv_479">
					<dim>-1</dim>
					<dim>384</dim>
					<dim>46</dim>
					<dim>62</dim>
				</port>
			</output>
		</layer>
		<layer id="137" name="Reshape_2088" type="Const" version="opset1">
			<data element_type="f32" shape="384, 1, 1, 3, 3" offset="623664" size="13824" />
			<output>
				<port id="0" precision="FP32">
					<dim>384</dim>
					<dim>1</dim>
					<dim>1</dim>
					<dim>3</dim>
					<dim>3</dim>
				</port>
			</output>
		</layer>
		<layer id="138" name="Conv_223/WithoutBiases" type="GroupConvolution" version="opset1">
			<data strides="1, 1" pads_begin="1, 1" pads_end="1, 1" dilations="1, 1" auto_pad="explicit" />
			<input>
				<port id="0" precision="FP32">
					<dim>-1</dim>
					<dim>384</dim>
					<dim>46</dim>
					<dim>62</dim>
				</port>
				<port id="1" precision="FP32">
					<dim>384</dim>
					<dim>1</dim>
					<dim>1</dim>
					<dim>3</dim>
					<dim>3</dim>
				</port>
			</input>
			<output>
				<port id="2" precision="FP32">
					<dim>-1</dim>
					<dim>384</dim>
					<dim>46</dim>
					<dim>62</dim>
				</port>
			</output>
		</layer>
		<layer id="139" name="Reshape_2174" type="Const" version="opset1">
			<data element_type="f32" shape="1, 384, 1, 1" offset="637488" size="1536" />
			<output>
				<port id="0" precision="FP32">
					<dim>1</dim>
					<dim>384</dim>
					<dim>1</dim>
					<dim>1</dim>
				</port>
			</output>
		</layer>
		<layer id="140" name="Conv_223" type="Add" version="opset1">
			<data auto_broadcast="numpy" />
			<input>
				<port id="0" precision="FP32">
					<dim>-1</dim>
					<dim>384</dim>
					<dim>46</dim>
					<dim>62</dim>
				</port>
				<port id="1" precision="FP32">
					<dim>1</dim>
					<dim>384</dim>
					<dim>1</dim>
					<dim>1</dim>
				</port>
			</input>
			<output>
				<port id="2" precision="FP32" names="onnx::Clip_2464">
					<dim>-1</dim>
					<dim>384</dim>
					<dim>46</dim>
					<dim>62</dim>
				</port>
			</output>
		</layer>
		<layer id="141" name="Clip_226" type="Clamp" version="opset1">
			<data min="0" max="6" />
			<input>
				<port id="0" precision="FP32">
					<dim>-1</dim>
					<dim>384</dim>
					<dim>46</dim>
					<dim>62</dim>
				</port>
			</input>
			<output>
				<port id="1" precision="FP32" names="onnx::Conv_484">
					<dim>-1</dim>
					<dim>384</dim>
					<dim>46</dim>
					<dim>62</dim>
				</port>
			</output>
		</layer>
		<layer id="142" name="onnx::Conv_2468" type="Const" version="opset1">
			<data element_type="f32" shape="64, 384, 1, 1" offset="639024" size="98304" />
			<output>
				<port id="0" precision="FP32" names="onnx::Conv_2468">
					<dim>64</dim>
					<dim>384</dim>
					<dim>1</dim>
					<dim>1</dim>
				</port>
			</output>
		</layer>
		<layer id="143" name="Conv_227/WithoutBiases" type="Convolution" version="opset1">
			<data strides="1, 1" dilations="1, 1" pads_begin="0, 0" pads_end="0, 0" auto_pad="explicit" />
			<input>
				<port id="0" precision="FP32">
					<dim>-1</dim>
					<dim>384</dim>
					<dim>46</dim>
					<dim>62</dim>
				</port>
				<port id="1" precision="FP32">
					<dim>64</dim>
					<dim>384</dim>
					<dim>1</dim>
					<dim>1</dim>
				</port>
			</input>
			<output>
				<port id="2" precision="FP32">
					<dim>-1</dim>
					<dim>64</dim>
					<dim>46</dim>
					<dim>62</dim>
				</port>
			</output>
		</layer>
		<layer id="144" name="Reshape_2226" type="Const" version="opset1">
			<data element_type="f32" shape="1, 64, 1, 1" offset="737328" size="256" />
			<output>
				<port id="0" precision="FP32">
					<dim>1</dim>
					<dim>64</dim>
					<dim>1</dim>
					<dim>1</dim>
				</port>
			</output>
		</layer>
		<layer id="145" name="Conv_227" type="Add" version="opset1">
			<data auto_broadcast="numpy" />
			<input>
				<port id="0" precision="FP32">
					<dim>-1</dim>
					<dim>64</dim>
					<dim>46</dim>
					<dim>62</dim>
				</port>
				<port id="1" precision="FP32">
					<dim>1</dim>
					<dim>64</dim>
					<dim>1</dim>
					<dim>1</dim>
				</port>
			</input>
			<output>
				<port id="2" precision="FP32" names="onnx::Add_2467">
					<dim>-1</dim>
					<dim>64</dim>
					<dim>46</dim>
					<dim>62</dim>
				</port>
			</output>
		</layer>
		<layer id="146" name="Add_228" type="Add" version="opset1">
			<data auto_broadcast="numpy" />
			<input>
				<port id="0" precision="FP32">
					<dim>-1</dim>
					<dim>64</dim>
					<dim>46</dim>
					<dim>62</dim>
				</port>
				<port id="1" precision="FP32">
					<dim>-1</dim>
					<dim>64</dim>
					<dim>46</dim>
					<dim>62</dim>
				</port>
			</input>
			<output>
				<port id="2" precision="FP32" names="input.143">
					<dim>-1</dim>
					<dim>64</dim>
					<dim>46</dim>
					<dim>62</dim>
				</port>
			</output>
		</layer>
		<layer id="147" name="onnx::Conv_2471" type="Const" version="opset1">
			<data element_type="f32" shape="384, 64, 1, 1" offset="737584" size="98304" />
			<output>
				<port id="0" precision="FP32" names="onnx::Conv_2471">
					<dim>384</dim>
					<dim>64</dim>
					<dim>1</dim>
					<dim>1</dim>
				</port>
			</output>
		</layer>
		<layer id="148" name="Conv_229/WithoutBiases" type="Convolution" version="opset1">
			<data strides="1, 1" dilations="1, 1" pads_begin="0, 0" pads_end="0, 0" auto_pad="explicit" />
			<input>
				<port id="0" precision="FP32">
					<dim>-1</dim>
					<dim>64</dim>
					<dim>46</dim>
					<dim>62</dim>
				</port>
				<port id="1" precision="FP32">
					<dim>384</dim>
					<dim>64</dim>
					<dim>1</dim>
					<dim>1</dim>
				</port>
			</input>
			<output>
				<port id="2" precision="FP32">
					<dim>-1</dim>
					<dim>384</dim>
					<dim>46</dim>
					<dim>62</dim>
				</port>
			</output>
		</layer>
		<layer id="149" name="Reshape_2275" type="Const" version="opset1">
			<data element_type="f32" shape="1, 384, 1, 1" offset="835888" size="1536" />
			<output>
				<port id="0" precision="FP32">
					<dim>1</dim>
					<dim>384</dim>
					<dim>1</dim>
					<dim>1</dim>
				</port>
			</output>
		</layer>
		<layer id="150" name="Conv_229" type="Add" version="opset1">
			<data auto_broadcast="numpy" />
			<input>
				<port id="0" precision="FP32">
					<dim>-1</dim>
					<dim>384</dim>
					<dim>46</dim>
					<dim>62</dim>
				</port>
				<port id="1" precision="FP32">
					<dim>1</dim>
					<dim>384</dim>
					<dim>1</dim>
					<dim>1</dim>
				</port>
			</input>
			<output>
				<port id="2" precision="FP32" names="onnx::Clip_2470">
					<dim>-1</dim>
					<dim>384</dim>
					<dim>46</dim>
					<dim>62</dim>
				</port>
			</output>
		</layer>
		<layer id="151" name="Clip_232" type="Clamp" version="opset1">
			<data min="0" max="6" />
			<input>
				<port id="0" precision="FP32">
					<dim>-1</dim>
					<dim>384</dim>
					<dim>46</dim>
					<dim>62</dim>
				</port>
			</input>
			<output>
				<port id="1" precision="FP32" names="onnx::Conv_492">
					<dim>-1</dim>
					<dim>384</dim>
					<dim>46</dim>
					<dim>62</dim>
				</port>
			</output>
		</layer>
		<layer id="152" name="Reshape_2314" type="Const" version="opset1">
			<data element_type="f32" shape="384, 1, 1, 3, 3" offset="837424" size="13824" />
			<output>
				<port id="0" precision="FP32">
					<dim>384</dim>
					<dim>1</dim>
					<dim>1</dim>
					<dim>3</dim>
					<dim>3</dim>
				</port>
			</output>
		</layer>
		<layer id="153" name="Conv_233/WithoutBiases" type="GroupConvolution" version="opset1">
			<data strides="1, 1" pads_begin="1, 1" pads_end="1, 1" dilations="1, 1" auto_pad="explicit" />
			<input>
				<port id="0" precision="FP32">
					<dim>-1</dim>
					<dim>384</dim>
					<dim>46</dim>
					<dim>62</dim>
				</port>
				<port id="1" precision="FP32">
					<dim>384</dim>
					<dim>1</dim>
					<dim>1</dim>
					<dim>3</dim>
					<dim>3</dim>
				</port>
			</input>
			<output>
				<port id="2" precision="FP32">
					<dim>-1</dim>
					<dim>384</dim>
					<dim>46</dim>
					<dim>62</dim>
				</port>
			</output>
		</layer>
		<layer id="154" name="Reshape_2400" type="Const" version="opset1">
			<data element_type="f32" shape="1, 384, 1, 1" offset="851248" size="1536" />
			<output>
				<port id="0" precision="FP32">
					<dim>1</dim>
					<dim>384</dim>
					<dim>1</dim>
					<dim>1</dim>
				</port>
			</output>
		</layer>
		<layer id="155" name="Conv_233" type="Add" version="opset1">
			<data auto_broadcast="numpy" />
			<input>
				<port id="0" precision="FP32">
					<dim>-1</dim>
					<dim>384</dim>
					<dim>46</dim>
					<dim>62</dim>
				</port>
				<port id="1" precision="FP32">
					<dim>1</dim>
					<dim>384</dim>
					<dim>1</dim>
					<dim>1</dim>
				</port>
			</input>
			<output>
				<port id="2" precision="FP32" names="onnx::Clip_2473">
					<dim>-1</dim>
					<dim>384</dim>
					<dim>46</dim>
					<dim>62</dim>
				</port>
			</output>
		</layer>
		<layer id="156" name="Clip_236" type="Clamp" version="opset1">
			<data min="0" max="6" />
			<input>
				<port id="0" precision="FP32">
					<dim>-1</dim>
					<dim>384</dim>
					<dim>46</dim>
					<dim>62</dim>
				</port>
			</input>
			<output>
				<port id="1" precision="FP32" names="onnx::Conv_497">
					<dim>-1</dim>
					<dim>384</dim>
					<dim>46</dim>
					<dim>62</dim>
				</port>
			</output>
		</layer>
		<layer id="157" name="onnx::Conv_2477" type="Const" version="opset1">
			<data element_type="f32" shape="64, 384, 1, 1" offset="852784" size="98304" />
			<output>
				<port id="0" precision="FP32" names="onnx::Conv_2477">
					<dim>64</dim>
					<dim>384</dim>
					<dim>1</dim>
					<dim>1</dim>
				</port>
			</output>
		</layer>
		<layer id="158" name="Conv_237/WithoutBiases" type="Convolution" version="opset1">
			<data strides="1, 1" dilations="1, 1" pads_begin="0, 0" pads_end="0, 0" auto_pad="explicit" />
			<input>
				<port id="0" precision="FP32">
					<dim>-1</dim>
					<dim>384</dim>
					<dim>46</dim>
					<dim>62</dim>
				</port>
				<port id="1" precision="FP32">
					<dim>64</dim>
					<dim>384</dim>
					<dim>1</dim>
					<dim>1</dim>
				</port>
			</input>
			<output>
				<port id="2" precision="FP32">
					<dim>-1</dim>
					<dim>64</dim>
					<dim>46</dim>
					<dim>62</dim>
				</port>
			</output>
		</layer>
		<layer id="159" name="Reshape_2452" type="Const" version="opset1">
			<data element_type="f32" shape="1, 64, 1, 1" offset="951088" size="256" />
			<output>
				<port id="0" precision="FP32">
					<dim>1</dim>
					<dim>64</dim>
					<dim>1</dim>
					<dim>1</dim>
				</port>
			</output>
		</layer>
		<layer id="160" name="Conv_237" type="Add" version="opset1">
			<data auto_broadcast="numpy" />
			<input>
				<port id="0" precision="FP32">
					<dim>-1</dim>
					<dim>64</dim>
					<dim>46</dim>
					<dim>62</dim>
				</port>
				<port id="1" precision="FP32">
					<dim>1</dim>
					<dim>64</dim>
					<dim>1</dim>
					<dim>1</dim>
				</port>
			</input>
			<output>
				<port id="2" precision="FP32" names="onnx::Add_2476">
					<dim>-1</dim>
					<dim>64</dim>
					<dim>46</dim>
					<dim>62</dim>
				</port>
			</output>
		</layer>
		<layer id="161" name="Add_238" type="Add" version="opset1">
			<data auto_broadcast="numpy" />
			<input>
				<port id="0" precision="FP32">
					<dim>-1</dim>
					<dim>64</dim>
					<dim>46</dim>
					<dim>62</dim>
				</port>
				<port id="1" precision="FP32">
					<dim>-1</dim>
					<dim>64</dim>
					<dim>46</dim>
					<dim>62</dim>
				</port>
			</input>
			<output>
				<port id="2" precision="FP32" names="input.159">
					<dim>-1</dim>
					<dim>64</dim>
					<dim>46</dim>
					<dim>62</dim>
				</port>
			</output>
		</layer>
		<layer id="162" name="onnx::Conv_2480" type="Const" version="opset1">
			<data element_type="f32" shape="384, 64, 1, 1" offset="951344" size="98304" />
			<output>
				<port id="0" precision="FP32" names="onnx::Conv_2480">
					<dim>384</dim>
					<dim>64</dim>
					<dim>1</dim>
					<dim>1</dim>
				</port>
			</output>
		</layer>
		<layer id="163" name="Conv_239/WithoutBiases" type="Convolution" version="opset1">
			<data strides="1, 1" dilations="1, 1" pads_begin="0, 0" pads_end="0, 0" auto_pad="explicit" />
			<input>
				<port id="0" precision="FP32">
					<dim>-1</dim>
					<dim>64</dim>
					<dim>46</dim>
					<dim>62</dim>
				</port>
				<port id="1" precision="FP32">
					<dim>384</dim>
					<dim>64</dim>
					<dim>1</dim>
					<dim>1</dim>
				</port>
			</input>
			<output>
				<port id="2" precision="FP32">
					<dim>-1</dim>
					<dim>384</dim>
					<dim>46</dim>
					<dim>62</dim>
				</port>
			</output>
		</layer>
		<layer id="164" name="Reshape_2501" type="Const" version="opset1">
			<data element_type="f32" shape="1, 384, 1, 1" offset="1049648" size="1536" />
			<output>
				<port id="0" precision="FP32">
					<dim>1</dim>
					<dim>384</dim>
					<dim>1</dim>
					<dim>1</dim>
				</port>
			</output>
		</layer>
		<layer id="165" name="Conv_239" type="Add" version="opset1">
			<data auto_broadcast="numpy" />
			<input>
				<port id="0" precision="FP32">
					<dim>-1</dim>
					<dim>384</dim>
					<dim>46</dim>
					<dim>62</dim>
				</port>
				<port id="1" precision="FP32">
					<dim>1</dim>
					<dim>384</dim>
					<dim>1</dim>
					<dim>1</dim>
				</port>
			</input>
			<output>
				<port id="2" precision="FP32" names="onnx::Clip_2479">
					<dim>-1</dim>
					<dim>384</dim>
					<dim>46</dim>
					<dim>62</dim>
				</port>
			</output>
		</layer>
		<layer id="166" name="Clip_242" type="Clamp" version="opset1">
			<data min="0" max="6" />
			<input>
				<port id="0" precision="FP32">
					<dim>-1</dim>
					<dim>384</dim>
					<dim>46</dim>
					<dim>62</dim>
				</port>
			</input>
			<output>
				<port id="1" precision="FP32" names="onnx::Conv_505">
					<dim>-1</dim>
					<dim>384</dim>
					<dim>46</dim>
					<dim>62</dim>
				</port>
			</output>
		</layer>
		<layer id="167" name="Reshape_2540" type="Const" version="opset1">
			<data element_type="f32" shape="384, 1, 1, 3, 3" offset="1051184" size="13824" />
			<output>
				<port id="0" precision="FP32">
					<dim>384</dim>
					<dim>1</dim>
					<dim>1</dim>
					<dim>3</dim>
					<dim>3</dim>
				</port>
			</output>
		</layer>
		<layer id="168" name="Conv_243/WithoutBiases" type="GroupConvolution" version="opset1">
			<data strides="1, 1" pads_begin="1, 1" pads_end="1, 1" dilations="1, 1" auto_pad="explicit" />
			<input>
				<port id="0" precision="FP32">
					<dim>-1</dim>
					<dim>384</dim>
					<dim>46</dim>
					<dim>62</dim>
				</port>
				<port id="1" precision="FP32">
					<dim>384</dim>
					<dim>1</dim>
					<dim>1</dim>
					<dim>3</dim>
					<dim>3</dim>
				</port>
			</input>
			<output>
				<port id="2" precision="FP32">
					<dim>-1</dim>
					<dim>384</dim>
					<dim>46</dim>
					<dim>62</dim>
				</port>
			</output>
		</layer>
		<layer id="169" name="Reshape_2626" type="Const" version="opset1">
			<data element_type="f32" shape="1, 384, 1, 1" offset="1065008" size="1536" />
			<output>
				<port id="0" precision="FP32">
					<dim>1</dim>
					<dim>384</dim>
					<dim>1</dim>
					<dim>1</dim>
				</port>
			</output>
		</layer>
		<layer id="170" name="Conv_243" type="Add" version="opset1">
			<data auto_broadcast="numpy" />
			<input>
				<port id="0" precision="FP32">
					<dim>-1</dim>
					<dim>384</dim>
					<dim>46</dim>
					<dim>62</dim>
				</port>
				<port id="1" precision="FP32">
					<dim>1</dim>
					<dim>384</dim>
					<dim>1</dim>
					<dim>1</dim>
				</port>
			</input>
			<output>
				<port id="2" precision="FP32" names="onnx::Clip_2482">
					<dim>-1</dim>
					<dim>384</dim>
					<dim>46</dim>
					<dim>62</dim>
				</port>
			</output>
		</layer>
		<layer id="171" name="Clip_246" type="Clamp" version="opset1">
			<data min="0" max="6" />
			<input>
				<port id="0" precision="FP32">
					<dim>-1</dim>
					<dim>384</dim>
					<dim>46</dim>
					<dim>62</dim>
				</port>
			</input>
			<output>
				<port id="1" precision="FP32" names="onnx::Conv_510">
					<dim>-1</dim>
					<dim>384</dim>
					<dim>46</dim>
					<dim>62</dim>
				</port>
			</output>
		</layer>
		<layer id="172" name="onnx::Conv_2486" type="Const" version="opset1">
			<data element_type="f32" shape="96, 384, 1, 1" offset="1066544" size="147456" />
			<output>
				<port id="0" precision="FP32" names="onnx::Conv_2486">
					<dim>96</dim>
					<dim>384</dim>
					<dim>1</dim>
					<dim>1</dim>
				</port>
			</output>
		</layer>
		<layer id="173" name="Conv_247/WithoutBiases" type="Convolution" version="opset1">
			<data strides="1, 1" dilations="1, 1" pads_begin="0, 0" pads_end="0, 0" auto_pad="explicit" />
			<input>
				<port id="0" precision="FP32">
					<dim>-1</dim>
					<dim>384</dim>
					<dim>46</dim>
					<dim>62</dim>
				</port>
				<port id="1" precision="FP32">
					<dim>96</dim>
					<dim>384</dim>
					<dim>1</dim>
					<dim>1</dim>
				</port>
			</input>
			<output>
				<port id="2" precision="FP32">
					<dim>-1</dim>
					<dim>96</dim>
					<dim>46</dim>
					<dim>62</dim>
				</port>
			</output>
		</layer>
		<layer id="174" name="Reshape_2678" type="Const" version="opset1">
			<data element_type="f32" shape="1, 96, 1, 1" offset="1214000" size="384" />
			<output>
				<port id="0" precision="FP32">
					<dim>1</dim>
					<dim>96</dim>
					<dim>1</dim>
					<dim>1</dim>
				</port>
			</output>
		</layer>
		<layer id="175" name="Conv_247" type="Add" version="opset1">
			<data auto_broadcast="numpy" />
			<input>
				<port id="0" precision="FP32">
					<dim>-1</dim>
					<dim>96</dim>
					<dim>46</dim>
					<dim>62</dim>
				</port>
				<port id="1" precision="FP32">
					<dim>1</dim>
					<dim>96</dim>
					<dim>1</dim>
					<dim>1</dim>
				</port>
			</input>
			<output>
				<port id="2" precision="FP32" names="input.175">
					<dim>-1</dim>
					<dim>96</dim>
					<dim>46</dim>
					<dim>62</dim>
				</port>
			</output>
		</layer>
		<layer id="176" name="onnx::Conv_2489" type="Const" version="opset1">
			<data element_type="f32" shape="576, 96, 1, 1" offset="1214384" size="221184" />
			<output>
				<port id="0" precision="FP32" names="onnx::Conv_2489">
					<dim>576</dim>
					<dim>96</dim>
					<dim>1</dim>
					<dim>1</dim>
				</port>
			</output>
		</layer>
		<layer id="177" name="Conv_248/WithoutBiases" type="Convolution" version="opset1">
			<data strides="1, 1" dilations="1, 1" pads_begin="0, 0" pads_end="0, 0" auto_pad="explicit" />
			<input>
				<port id="0" precision="FP32">
					<dim>-1</dim>
					<dim>96</dim>
					<dim>46</dim>
					<dim>62</dim>
				</port>
				<port id="1" precision="FP32">
					<dim>576</dim>
					<dim>96</dim>
					<dim>1</dim>
					<dim>1</dim>
				</port>
			</input>
			<output>
				<port id="2" precision="FP32">
					<dim>-1</dim>
					<dim>576</dim>
					<dim>46</dim>
					<dim>62</dim>
				</port>
			</output>
		</layer>
		<layer id="178" name="Reshape_2726" type="Const" version="opset1">
			<data element_type="f32" shape="1, 576, 1, 1" offset="1435568" size="2304" />
			<output>
				<port id="0" precision="FP32">
					<dim>1</dim>
					<dim>576</dim>
					<dim>1</dim>
					<dim>1</dim>
				</port>
			</output>
		</layer>
		<layer id="179" name="Conv_248" type="Add" version="opset1">
			<data auto_broadcast="numpy" />
			<input>
				<port id="0" precision="FP32">
					<dim>-1</dim>
					<dim>576</dim>
					<dim>46</dim>
					<dim>62</dim>
				</port>
				<port id="1" precision="FP32">
					<dim>1</dim>
					<dim>576</dim>
					<dim>1</dim>
					<dim>1</dim>
				</port>
			</input>
			<output>
				<port id="2" precision="FP32" names="onnx::Clip_2488">
					<dim>-1</dim>
					<dim>576</dim>
					<dim>46</dim>
					<dim>62</dim>
				</port>
			</output>
		</layer>
		<layer id="180" name="Clip_251" type="Clamp" version="opset1">
			<data min="0" max="6" />
			<input>
				<port id="0" precision="FP32">
					<dim>-1</dim>
					<dim>576</dim>
					<dim>46</dim>
					<dim>62</dim>
				</port>
			</input>
			<output>
				<port id="1" precision="FP32" names="onnx::Conv_517">
					<dim>-1</dim>
					<dim>576</dim>
					<dim>46</dim>
					<dim>62</dim>
				</port>
			</output>
		</layer>
		<layer id="181" name="Reshape_2765" type="Const" version="opset1">
			<data element_type="f32" shape="576, 1, 1, 3, 3" offset="1437872" size="20736" />
			<output>
				<port id="0" precision="FP32">
					<dim>576</dim>
					<dim>1</dim>
					<dim>1</dim>
					<dim>3</dim>
					<dim>3</dim>
				</port>
			</output>
		</layer>
		<layer id="182" name="Conv_252/WithoutBiases" type="GroupConvolution" version="opset1">
			<data strides="1, 1" pads_begin="1, 1" pads_end="1, 1" dilations="1, 1" auto_pad="explicit" />
			<input>
				<port id="0" precision="FP32">
					<dim>-1</dim>
					<dim>576</dim>
					<dim>46</dim>
					<dim>62</dim>
				</port>
				<port id="1" precision="FP32">
					<dim>576</dim>
					<dim>1</dim>
					<dim>1</dim>
					<dim>3</dim>
					<dim>3</dim>
				</port>
			</input>
			<output>
				<port id="2" precision="FP32">
					<dim>-1</dim>
					<dim>576</dim>
					<dim>46</dim>
					<dim>62</dim>
				</port>
			</output>
		</layer>
		<layer id="183" name="Reshape_2851" type="Const" version="opset1">
			<data element_type="f32" shape="1, 576, 1, 1" offset="1458608" size="2304" />
			<output>
				<port id="0" precision="FP32">
					<dim>1</dim>
					<dim>576</dim>
					<dim>1</dim>
					<dim>1</dim>
				</port>
			</output>
		</layer>
		<layer id="184" name="Conv_252" type="Add" version="opset1">
			<data auto_broadcast="numpy" />
			<input>
				<port id="0" precision="FP32">
					<dim>-1</dim>
					<dim>576</dim>
					<dim>46</dim>
					<dim>62</dim>
				</port>
				<port id="1" precision="FP32">
					<dim>1</dim>
					<dim>576</dim>
					<dim>1</dim>
					<dim>1</dim>
				</port>
			</input>
			<output>
				<port id="2" precision="FP32" names="onnx::Clip_2491">
					<dim>-1</dim>
					<dim>576</dim>
					<dim>46</dim>
					<dim>62</dim>
				</port>
			</output>
		</layer>
		<layer id="185" name="Clip_255" type="Clamp" version="opset1">
			<data min="0" max="6" />
			<input>
				<port id="0" precision="FP32">
					<dim>-1</dim>
					<dim>576</dim>
					<dim>46</dim>
					<dim>62</dim>
				</port>
			</input>
			<output>
				<port id="1" precision="FP32" names="onnx::Conv_522">
					<dim>-1</dim>
					<dim>576</dim>
					<dim>46</dim>
					<dim>62</dim>
				</port>
			</output>
		</layer>
		<layer id="186" name="onnx::Conv_2495" type="Const" version="opset1">
			<data element_type="f32" shape="96, 576, 1, 1" offset="1460912" size="221184" />
			<output>
				<port id="0" precision="FP32" names="onnx::Conv_2495">
					<dim>96</dim>
					<dim>576</dim>
					<dim>1</dim>
					<dim>1</dim>
				</port>
			</output>
		</layer>
		<layer id="187" name="Conv_256/WithoutBiases" type="Convolution" version="opset1">
			<data strides="1, 1" dilations="1, 1" pads_begin="0, 0" pads_end="0, 0" auto_pad="explicit" />
			<input>
				<port id="0" precision="FP32">
					<dim>-1</dim>
					<dim>576</dim>
					<dim>46</dim>
					<dim>62</dim>
				</port>
				<port id="1" precision="FP32">
					<dim>96</dim>
					<dim>576</dim>
					<dim>1</dim>
					<dim>1</dim>
				</port>
			</input>
			<output>
				<port id="2" precision="FP32">
					<dim>-1</dim>
					<dim>96</dim>
					<dim>46</dim>
					<dim>62</dim>
				</port>
			</output>
		</layer>
		<layer id="188" name="Reshape_2903" type="Const" version="opset1">
			<data element_type="f32" shape="1, 96, 1, 1" offset="1682096" size="384" />
			<output>
				<port id="0" precision="FP32">
					<dim>1</dim>
					<dim>96</dim>
					<dim>1</dim>
					<dim>1</dim>
				</port>
			</output>
		</layer>
		<layer id="189" name="Conv_256" type="Add" version="opset1">
			<data auto_broadcast="numpy" />
			<input>
				<port id="0" precision="FP32">
					<dim>-1</dim>
					<dim>96</dim>
					<dim>46</dim>
					<dim>62</dim>
				</port>
				<port id="1" precision="FP32">
					<dim>1</dim>
					<dim>96</dim>
					<dim>1</dim>
					<dim>1</dim>
				</port>
			</input>
			<output>
				<port id="2" precision="FP32" names="onnx::Add_2494">
					<dim>-1</dim>
					<dim>96</dim>
					<dim>46</dim>
					<dim>62</dim>
				</port>
			</output>
		</layer>
		<layer id="190" name="Add_257" type="Add" version="opset1">
			<data auto_broadcast="numpy" />
			<input>
				<port id="0" precision="FP32">
					<dim>-1</dim>
					<dim>96</dim>
					<dim>46</dim>
					<dim>62</dim>
				</port>
				<port id="1" precision="FP32">
					<dim>-1</dim>
					<dim>96</dim>
					<dim>46</dim>
					<dim>62</dim>
				</port>
			</input>
			<output>
				<port id="2" precision="FP32" names="input.191">
					<dim>-1</dim>
					<dim>96</dim>
					<dim>46</dim>
					<dim>62</dim>
				</port>
			</output>
		</layer>
		<layer id="191" name="onnx::Conv_2498" type="Const" version="opset1">
			<data element_type="f32" shape="576, 96, 1, 1" offset="1682480" size="221184" />
			<output>
				<port id="0" precision="FP32" names="onnx::Conv_2498">
					<dim>576</dim>
					<dim>96</dim>
					<dim>1</dim>
					<dim>1</dim>
				</port>
			</output>
		</layer>
		<layer id="192" name="Conv_258/WithoutBiases" type="Convolution" version="opset1">
			<data strides="1, 1" dilations="1, 1" pads_begin="0, 0" pads_end="0, 0" auto_pad="explicit" />
			<input>
				<port id="0" precision="FP32">
					<dim>-1</dim>
					<dim>96</dim>
					<dim>46</dim>
					<dim>62</dim>
				</port>
				<port id="1" precision="FP32">
					<dim>576</dim>
					<dim>96</dim>
					<dim>1</dim>
					<dim>1</dim>
				</port>
			</input>
			<output>
				<port id="2" precision="FP32">
					<dim>-1</dim>
					<dim>576</dim>
					<dim>46</dim>
					<dim>62</dim>
				</port>
			</output>
		</layer>
		<layer id="193" name="Reshape_2952" type="Const" version="opset1">
			<data element_type="f32" shape="1, 576, 1, 1" offset="1903664" size="2304" />
			<output>
				<port id="0" precision="FP32">
					<dim>1</dim>
					<dim>576</dim>
					<dim>1</dim>
					<dim>1</dim>
				</port>
			</output>
		</layer>
		<layer id="194" name="Conv_258" type="Add" version="opset1">
			<data auto_broadcast="numpy" />
			<input>
				<port id="0" precision="FP32">
					<dim>-1</dim>
					<dim>576</dim>
					<dim>46</dim>
					<dim>62</dim>
				</port>
				<port id="1" precision="FP32">
					<dim>1</dim>
					<dim>576</dim>
					<dim>1</dim>
					<dim>1</dim>
				</port>
			</input>
			<output>
				<port id="2" precision="FP32" names="onnx::Clip_2497">
					<dim>-1</dim>
					<dim>576</dim>
					<dim>46</dim>
					<dim>62</dim>
				</port>
			</output>
		</layer>
		<layer id="195" name="Clip_261" type="Clamp" version="opset1">
			<data min="0" max="6" />
			<input>
				<port id="0" precision="FP32">
					<dim>-1</dim>
					<dim>576</dim>
					<dim>46</dim>
					<dim>62</dim>
				</port>
			</input>
			<output>
				<port id="1" precision="FP32" names="onnx::Conv_530">
					<dim>-1</dim>
					<dim>576</dim>
					<dim>46</dim>
					<dim>62</dim>
				</port>
			</output>
		</layer>
		<layer id="196" name="Reshape_2991" type="Const" version="opset1">
			<data element_type="f32" shape="576, 1, 1, 3, 3" offset="1905968" size="20736" />
			<output>
				<port id="0" precision="FP32">
					<dim>576</dim>
					<dim>1</dim>
					<dim>1</dim>
					<dim>3</dim>
					<dim>3</dim>
				</port>
			</output>
		</layer>
		<layer id="197" name="Conv_262/WithoutBiases" type="GroupConvolution" version="opset1">
			<data strides="1, 1" pads_begin="1, 1" pads_end="1, 1" dilations="1, 1" auto_pad="explicit" />
			<input>
				<port id="0" precision="FP32">
					<dim>-1</dim>
					<dim>576</dim>
					<dim>46</dim>
					<dim>62</dim>
				</port>
				<port id="1" precision="FP32">
					<dim>576</dim>
					<dim>1</dim>
					<dim>1</dim>
					<dim>3</dim>
					<dim>3</dim>
				</port>
			</input>
			<output>
				<port id="2" precision="FP32">
					<dim>-1</dim>
					<dim>576</dim>
					<dim>46</dim>
					<dim>62</dim>
				</port>
			</output>
		</layer>
		<layer id="198" name="Reshape_3077" type="Const" version="opset1">
			<data element_type="f32" shape="1, 576, 1, 1" offset="1926704" size="2304" />
			<output>
				<port id="0" precision="FP32">
					<dim>1</dim>
					<dim>576</dim>
					<dim>1</dim>
					<dim>1</dim>
				</port>
			</output>
		</layer>
		<layer id="199" name="Conv_262" type="Add" version="opset1">
			<data auto_broadcast="numpy" />
			<input>
				<port id="0" precision="FP32">
					<dim>-1</dim>
					<dim>576</dim>
					<dim>46</dim>
					<dim>62</dim>
				</port>
				<port id="1" precision="FP32">
					<dim>1</dim>
					<dim>576</dim>
					<dim>1</dim>
					<dim>1</dim>
				</port>
			</input>
			<output>
				<port id="2" precision="FP32" names="onnx::Clip_2500">
					<dim>-1</dim>
					<dim>576</dim>
					<dim>46</dim>
					<dim>62</dim>
				</port>
			</output>
		</layer>
		<layer id="200" name="Clip_265" type="Clamp" version="opset1">
			<data min="0" max="6" />
			<input>
				<port id="0" precision="FP32">
					<dim>-1</dim>
					<dim>576</dim>
					<dim>46</dim>
					<dim>62</dim>
				</port>
			</input>
			<output>
				<port id="1" precision="FP32" names="onnx::Conv_535">
					<dim>-1</dim>
					<dim>576</dim>
					<dim>46</dim>
					<dim>62</dim>
				</port>
			</output>
		</layer>
		<layer id="201" name="onnx::Conv_2504" type="Const" version="opset1">
			<data element_type="f32" shape="96, 576, 1, 1" offset="1929008" size="221184" />
			<output>
				<port id="0" precision="FP32" names="onnx::Conv_2504">
					<dim>96</dim>
					<dim>576</dim>
					<dim>1</dim>
					<dim>1</dim>
				</port>
			</output>
		</layer>
		<layer id="202" name="Conv_266/WithoutBiases" type="Convolution" version="opset1">
			<data strides="1, 1" dilations="1, 1" pads_begin="0, 0" pads_end="0, 0" auto_pad="explicit" />
			<input>
				<port id="0" precision="FP32">
					<dim>-1</dim>
					<dim>576</dim>
					<dim>46</dim>
					<dim>62</dim>
				</port>
				<port id="1" precision="FP32">
					<dim>96</dim>
					<dim>576</dim>
					<dim>1</dim>
					<dim>1</dim>
				</port>
			</input>
			<output>
				<port id="2" precision="FP32">
					<dim>-1</dim>
					<dim>96</dim>
					<dim>46</dim>
					<dim>62</dim>
				</port>
			</output>
		</layer>
		<layer id="203" name="Reshape_3129" type="Const" version="opset1">
			<data element_type="f32" shape="1, 96, 1, 1" offset="2150192" size="384" />
			<output>
				<port id="0" precision="FP32">
					<dim>1</dim>
					<dim>96</dim>
					<dim>1</dim>
					<dim>1</dim>
				</port>
			</output>
		</layer>
		<layer id="204" name="Conv_266" type="Add" version="opset1">
			<data auto_broadcast="numpy" />
			<input>
				<port id="0" precision="FP32">
					<dim>-1</dim>
					<dim>96</dim>
					<dim>46</dim>
					<dim>62</dim>
				</port>
				<port id="1" precision="FP32">
					<dim>1</dim>
					<dim>96</dim>
					<dim>1</dim>
					<dim>1</dim>
				</port>
			</input>
			<output>
				<port id="2" precision="FP32" names="onnx::Add_2503">
					<dim>-1</dim>
					<dim>96</dim>
					<dim>46</dim>
					<dim>62</dim>
				</port>
			</output>
		</layer>
		<layer id="205" name="Add_267" type="Add" version="opset1">
			<data auto_broadcast="numpy" />
			<input>
				<port id="0" precision="FP32">
					<dim>-1</dim>
					<dim>96</dim>
					<dim>46</dim>
					<dim>62</dim>
				</port>
				<port id="1" precision="FP32">
					<dim>-1</dim>
					<dim>96</dim>
					<dim>46</dim>
					<dim>62</dim>
				</port>
			</input>
			<output>
				<port id="2" precision="FP32" names="input.207">
					<dim>-1</dim>
					<dim>96</dim>
					<dim>46</dim>
					<dim>62</dim>
				</port>
			</output>
		</layer>
		<layer id="206" name="neck.lateral_convs.1.conv.weight" type="Const" version="opset1">
			<data element_type="f32" shape="64, 96, 1, 1" offset="2150576" size="24576" />
			<output>
				<port id="0" precision="FP32" names="neck.lateral_convs.1.conv.weight">
					<dim>64</dim>
					<dim>96</dim>
					<dim>1</dim>
					<dim>1</dim>
				</port>
			</output>
		</layer>
		<layer id="207" name="Conv_307/WithoutBiases" type="Convolution" version="opset1">
			<data strides="1, 1" dilations="1, 1" pads_begin="0, 0" pads_end="0, 0" auto_pad="explicit" />
			<input>
				<port id="0" precision="FP32">
					<dim>-1</dim>
					<dim>96</dim>
					<dim>46</dim>
					<dim>62</dim>
				</port>
				<port id="1" precision="FP32">
					<dim>64</dim>
					<dim>96</dim>
					<dim>1</dim>
					<dim>1</dim>
				</port>
			</input>
			<output>
				<port id="2" precision="FP32">
					<dim>-1</dim>
					<dim>64</dim>
					<dim>46</dim>
					<dim>62</dim>
				</port>
			</output>
		</layer>
		<layer id="208" name="Reshape_4128" type="Const" version="opset1">
			<data element_type="f32" shape="1, 64, 1, 1" offset="2175152" size="256" />
			<output>
				<port id="0" precision="FP32">
					<dim>1</dim>
					<dim>64</dim>
					<dim>1</dim>
					<dim>1</dim>
				</port>
			</output>
		</layer>
		<layer id="209" name="Conv_307" type="Add" version="opset1">
			<data auto_broadcast="numpy" />
			<input>
				<port id="0" precision="FP32">
					<dim>-1</dim>
					<dim>64</dim>
					<dim>46</dim>
					<dim>62</dim>
				</port>
				<port id="1" precision="FP32">
					<dim>1</dim>
					<dim>64</dim>
					<dim>1</dim>
					<dim>1</dim>
				</port>
			</input>
			<output>
				<port id="2" precision="FP32" names="onnx::Shape_590">
					<dim>-1</dim>
					<dim>64</dim>
					<dim>46</dim>
					<dim>62</dim>
				</port>
			</output>
		</layer>
		<layer id="210" name="onnx::Conv_2507" type="Const" version="opset1">
			<data element_type="f32" shape="576, 96, 1, 1" offset="2175408" size="221184" />
			<output>
				<port id="0" precision="FP32" names="onnx::Conv_2507">
					<dim>576</dim>
					<dim>96</dim>
					<dim>1</dim>
					<dim>1</dim>
				</port>
			</output>
		</layer>
		<layer id="211" name="Conv_268/WithoutBiases" type="Convolution" version="opset1">
			<data strides="1, 1" dilations="1, 1" pads_begin="0, 0" pads_end="0, 0" auto_pad="explicit" />
			<input>
				<port id="0" precision="FP32">
					<dim>-1</dim>
					<dim>96</dim>
					<dim>46</dim>
					<dim>62</dim>
				</port>
				<port id="1" precision="FP32">
					<dim>576</dim>
					<dim>96</dim>
					<dim>1</dim>
					<dim>1</dim>
				</port>
			</input>
			<output>
				<port id="2" precision="FP32">
					<dim>-1</dim>
					<dim>576</dim>
					<dim>46</dim>
					<dim>62</dim>
				</port>
			</output>
		</layer>
		<layer id="212" name="Reshape_3178" type="Const" version="opset1">
			<data element_type="f32" shape="1, 576, 1, 1" offset="2396592" size="2304" />
			<output>
				<port id="0" precision="FP32">
					<dim>1</dim>
					<dim>576</dim>
					<dim>1</dim>
					<dim>1</dim>
				</port>
			</output>
		</layer>
		<layer id="213" name="Conv_268" type="Add" version="opset1">
			<data auto_broadcast="numpy" />
			<input>
				<port id="0" precision="FP32">
					<dim>-1</dim>
					<dim>576</dim>
					<dim>46</dim>
					<dim>62</dim>
				</port>
				<port id="1" precision="FP32">
					<dim>1</dim>
					<dim>576</dim>
					<dim>1</dim>
					<dim>1</dim>
				</port>
			</input>
			<output>
				<port id="2" precision="FP32" names="onnx::Clip_2506">
					<dim>-1</dim>
					<dim>576</dim>
					<dim>46</dim>
					<dim>62</dim>
				</port>
			</output>
		</layer>
		<layer id="214" name="Clip_271" type="Clamp" version="opset1">
			<data min="0" max="6" />
			<input>
				<port id="0" precision="FP32">
					<dim>-1</dim>
					<dim>576</dim>
					<dim>46</dim>
					<dim>62</dim>
				</port>
			</input>
			<output>
				<port id="1" precision="FP32" names="onnx::Conv_543">
					<dim>-1</dim>
					<dim>576</dim>
					<dim>46</dim>
					<dim>62</dim>
				</port>
			</output>
		</layer>
		<layer id="215" name="Reshape_3217" type="Const" version="opset1">
			<data element_type="f32" shape="576, 1, 1, 3, 3" offset="2398896" size="20736" />
			<output>
				<port id="0" precision="FP32">
					<dim>576</dim>
					<dim>1</dim>
					<dim>1</dim>
					<dim>3</dim>
					<dim>3</dim>
				</port>
			</output>
		</layer>
		<layer id="216" name="Conv_272/WithoutBiases" type="GroupConvolution" version="opset1">
			<data strides="2, 2" pads_begin="1, 1" pads_end="1, 1" dilations="1, 1" auto_pad="explicit" />
			<input>
				<port id="0" precision="FP32">
					<dim>-1</dim>
					<dim>576</dim>
					<dim>46</dim>
					<dim>62</dim>
				</port>
				<port id="1" precision="FP32">
					<dim>576</dim>
					<dim>1</dim>
					<dim>1</dim>
					<dim>3</dim>
					<dim>3</dim>
				</port>
			</input>
			<output>
				<port id="2" precision="FP32">
					<dim>-1</dim>
					<dim>576</dim>
					<dim>23</dim>
					<dim>31</dim>
				</port>
			</output>
		</layer>
		<layer id="217" name="Reshape_3303" type="Const" version="opset1">
			<data element_type="f32" shape="1, 576, 1, 1" offset="2419632" size="2304" />
			<output>
				<port id="0" precision="FP32">
					<dim>1</dim>
					<dim>576</dim>
					<dim>1</dim>
					<dim>1</dim>
				</port>
			</output>
		</layer>
		<layer id="218" name="Conv_272" type="Add" version="opset1">
			<data auto_broadcast="numpy" />
			<input>
				<port id="0" precision="FP32">
					<dim>-1</dim>
					<dim>576</dim>
					<dim>23</dim>
					<dim>31</dim>
				</port>
				<port id="1" precision="FP32">
					<dim>1</dim>
					<dim>576</dim>
					<dim>1</dim>
					<dim>1</dim>
				</port>
			</input>
			<output>
				<port id="2" precision="FP32" names="onnx::Clip_2509">
					<dim>-1</dim>
					<dim>576</dim>
					<dim>23</dim>
					<dim>31</dim>
				</port>
			</output>
		</layer>
		<layer id="219" name="Clip_275" type="Clamp" version="opset1">
			<data min="0" max="6" />
			<input>
				<port id="0" precision="FP32">
					<dim>-1</dim>
					<dim>576</dim>
					<dim>23</dim>
					<dim>31</dim>
				</port>
			</input>
			<output>
				<port id="1" precision="FP32" names="onnx::Conv_548">
					<dim>-1</dim>
					<dim>576</dim>
					<dim>23</dim>
					<dim>31</dim>
				</port>
			</output>
		</layer>
		<layer id="220" name="onnx::Conv_2513" type="Const" version="opset1">
			<data element_type="f32" shape="160, 576, 1, 1" offset="2421936" size="368640" />
			<output>
				<port id="0" precision="FP32" names="onnx::Conv_2513">
					<dim>160</dim>
					<dim>576</dim>
					<dim>1</dim>
					<dim>1</dim>
				</port>
			</output>
		</layer>
		<layer id="221" name="Conv_276/WithoutBiases" type="Convolution" version="opset1">
			<data strides="1, 1" dilations="1, 1" pads_begin="0, 0" pads_end="0, 0" auto_pad="explicit" />
			<input>
				<port id="0" precision="FP32">
					<dim>-1</dim>
					<dim>576</dim>
					<dim>23</dim>
					<dim>31</dim>
				</port>
				<port id="1" precision="FP32">
					<dim>160</dim>
					<dim>576</dim>
					<dim>1</dim>
					<dim>1</dim>
				</port>
			</input>
			<output>
				<port id="2" precision="FP32">
					<dim>-1</dim>
					<dim>160</dim>
					<dim>23</dim>
					<dim>31</dim>
				</port>
			</output>
		</layer>
		<layer id="222" name="Reshape_3355" type="Const" version="opset1">
			<data element_type="f32" shape="1, 160, 1, 1" offset="2790576" size="640" />
			<output>
				<port id="0" precision="FP32">
					<dim>1</dim>
					<dim>160</dim>
					<dim>1</dim>
					<dim>1</dim>
				</port>
			</output>
		</layer>
		<layer id="223" name="Conv_276" type="Add" version="opset1">
			<data auto_broadcast="numpy" />
			<input>
				<port id="0" precision="FP32">
					<dim>-1</dim>
					<dim>160</dim>
					<dim>23</dim>
					<dim>31</dim>
				</port>
				<port id="1" precision="FP32">
					<dim>1</dim>
					<dim>160</dim>
					<dim>1</dim>
					<dim>1</dim>
				</port>
			</input>
			<output>
				<port id="2" precision="FP32" names="input.223">
					<dim>-1</dim>
					<dim>160</dim>
					<dim>23</dim>
					<dim>31</dim>
				</port>
			</output>
		</layer>
		<layer id="224" name="onnx::Conv_2516" type="Const" version="opset1">
			<data element_type="f32" shape="960, 160, 1, 1" offset="2791216" size="614400" />
			<output>
				<port id="0" precision="FP32" names="onnx::Conv_2516">
					<dim>960</dim>
					<dim>160</dim>
					<dim>1</dim>
					<dim>1</dim>
				</port>
			</output>
		</layer>
		<layer id="225" name="Conv_277/WithoutBiases" type="Convolution" version="opset1">
			<data strides="1, 1" dilations="1, 1" pads_begin="0, 0" pads_end="0, 0" auto_pad="explicit" />
			<input>
				<port id="0" precision="FP32">
					<dim>-1</dim>
					<dim>160</dim>
					<dim>23</dim>
					<dim>31</dim>
				</port>
				<port id="1" precision="FP32">
					<dim>960</dim>
					<dim>160</dim>
					<dim>1</dim>
					<dim>1</dim>
				</port>
			</input>
			<output>
				<port id="2" precision="FP32">
					<dim>-1</dim>
					<dim>960</dim>
					<dim>23</dim>
					<dim>31</dim>
				</port>
			</output>
		</layer>
		<layer id="226" name="Reshape_3403" type="Const" version="opset1">
			<data element_type="f32" shape="1, 960, 1, 1" offset="3405616" size="3840" />
			<output>
				<port id="0" precision="FP32">
					<dim>1</dim>
					<dim>960</dim>
					<dim>1</dim>
					<dim>1</dim>
				</port>
			</output>
		</layer>
		<layer id="227" name="Conv_277" type="Add" version="opset1">
			<data auto_broadcast="numpy" />
			<input>
				<port id="0" precision="FP32">
					<dim>-1</dim>
					<dim>960</dim>
					<dim>23</dim>
					<dim>31</dim>
				</port>
				<port id="1" precision="FP32">
					<dim>1</dim>
					<dim>960</dim>
					<dim>1</dim>
					<dim>1</dim>
				</port>
			</input>
			<output>
				<port id="2" precision="FP32" names="onnx::Clip_2515">
					<dim>-1</dim>
					<dim>960</dim>
					<dim>23</dim>
					<dim>31</dim>
				</port>
			</output>
		</layer>
		<layer id="228" name="Clip_280" type="Clamp" version="opset1">
			<data min="0" max="6" />
			<input>
				<port id="0" precision="FP32">
					<dim>-1</dim>
					<dim>960</dim>
					<dim>23</dim>
					<dim>31</dim>
				</port>
			</input>
			<output>
				<port id="1" precision="FP32" names="onnx::Conv_555">
					<dim>-1</dim>
					<dim>960</dim>
					<dim>23</dim>
					<dim>31</dim>
				</port>
			</output>
		</layer>
		<layer id="229" name="Reshape_3442" type="Const" version="opset1">
			<data element_type="f32" shape="960, 1, 1, 3, 3" offset="3409456" size="34560" />
			<output>
				<port id="0" precision="FP32">
					<dim>960</dim>
					<dim>1</dim>
					<dim>1</dim>
					<dim>3</dim>
					<dim>3</dim>
				</port>
			</output>
		</layer>
		<layer id="230" name="Conv_281/WithoutBiases" type="GroupConvolution" version="opset1">
			<data strides="1, 1" pads_begin="1, 1" pads_end="1, 1" dilations="1, 1" auto_pad="explicit" />
			<input>
				<port id="0" precision="FP32">
					<dim>-1</dim>
					<dim>960</dim>
					<dim>23</dim>
					<dim>31</dim>
				</port>
				<port id="1" precision="FP32">
					<dim>960</dim>
					<dim>1</dim>
					<dim>1</dim>
					<dim>3</dim>
					<dim>3</dim>
				</port>
			</input>
			<output>
				<port id="2" precision="FP32">
					<dim>-1</dim>
					<dim>960</dim>
					<dim>23</dim>
					<dim>31</dim>
				</port>
			</output>
		</layer>
		<layer id="231" name="Reshape_3528" type="Const" version="opset1">
			<data element_type="f32" shape="1, 960, 1, 1" offset="3444016" size="3840" />
			<output>
				<port id="0" precision="FP32">
					<dim>1</dim>
					<dim>960</dim>
					<dim>1</dim>
					<dim>1</dim>
				</port>
			</output>
		</layer>
		<layer id="232" name="Conv_281" type="Add" version="opset1">
			<data auto_broadcast="numpy" />
			<input>
				<port id="0" precision="FP32">
					<dim>-1</dim>
					<dim>960</dim>
					<dim>23</dim>
					<dim>31</dim>
				</port>
				<port id="1" precision="FP32">
					<dim>1</dim>
					<dim>960</dim>
					<dim>1</dim>
					<dim>1</dim>
				</port>
			</input>
			<output>
				<port id="2" precision="FP32" names="onnx::Clip_2518">
					<dim>-1</dim>
					<dim>960</dim>
					<dim>23</dim>
					<dim>31</dim>
				</port>
			</output>
		</layer>
		<layer id="233" name="Clip_284" type="Clamp" version="opset1">
			<data min="0" max="6" />
			<input>
				<port id="0" precision="FP32">
					<dim>-1</dim>
					<dim>960</dim>
					<dim>23</dim>
					<dim>31</dim>
				</port>
			</input>
			<output>
				<port id="1" precision="FP32" names="onnx::Conv_560">
					<dim>-1</dim>
					<dim>960</dim>
					<dim>23</dim>
					<dim>31</dim>
				</port>
			</output>
		</layer>
		<layer id="234" name="onnx::Conv_2522" type="Const" version="opset1">
			<data element_type="f32" shape="160, 960, 1, 1" offset="3447856" size="614400" />
			<output>
				<port id="0" precision="FP32" names="onnx::Conv_2522">
					<dim>160</dim>
					<dim>960</dim>
					<dim>1</dim>
					<dim>1</dim>
				</port>
			</output>
		</layer>
		<layer id="235" name="Conv_285/WithoutBiases" type="Convolution" version="opset1">
			<data strides="1, 1" dilations="1, 1" pads_begin="0, 0" pads_end="0, 0" auto_pad="explicit" />
			<input>
				<port id="0" precision="FP32">
					<dim>-1</dim>
					<dim>960</dim>
					<dim>23</dim>
					<dim>31</dim>
				</port>
				<port id="1" precision="FP32">
					<dim>160</dim>
					<dim>960</dim>
					<dim>1</dim>
					<dim>1</dim>
				</port>
			</input>
			<output>
				<port id="2" precision="FP32">
					<dim>-1</dim>
					<dim>160</dim>
					<dim>23</dim>
					<dim>31</dim>
				</port>
			</output>
		</layer>
		<layer id="236" name="Reshape_3580" type="Const" version="opset1">
			<data element_type="f32" shape="1, 160, 1, 1" offset="4062256" size="640" />
			<output>
				<port id="0" precision="FP32">
					<dim>1</dim>
					<dim>160</dim>
					<dim>1</dim>
					<dim>1</dim>
				</port>
			</output>
		</layer>
		<layer id="237" name="Conv_285" type="Add" version="opset1">
			<data auto_broadcast="numpy" />
			<input>
				<port id="0" precision="FP32">
					<dim>-1</dim>
					<dim>160</dim>
					<dim>23</dim>
					<dim>31</dim>
				</port>
				<port id="1" precision="FP32">
					<dim>1</dim>
					<dim>160</dim>
					<dim>1</dim>
					<dim>1</dim>
				</port>
			</input>
			<output>
				<port id="2" precision="FP32" names="onnx::Add_2521">
					<dim>-1</dim>
					<dim>160</dim>
					<dim>23</dim>
					<dim>31</dim>
				</port>
			</output>
		</layer>
		<layer id="238" name="Add_286" type="Add" version="opset1">
			<data auto_broadcast="numpy" />
			<input>
				<port id="0" precision="FP32">
					<dim>-1</dim>
					<dim>160</dim>
					<dim>23</dim>
					<dim>31</dim>
				</port>
				<port id="1" precision="FP32">
					<dim>-1</dim>
					<dim>160</dim>
					<dim>23</dim>
					<dim>31</dim>
				</port>
			</input>
			<output>
				<port id="2" precision="FP32" names="input.239">
					<dim>-1</dim>
					<dim>160</dim>
					<dim>23</dim>
					<dim>31</dim>
				</port>
			</output>
		</layer>
		<layer id="239" name="onnx::Conv_2525" type="Const" version="opset1">
			<data element_type="f32" shape="960, 160, 1, 1" offset="4062896" size="614400" />
			<output>
				<port id="0" precision="FP32" names="onnx::Conv_2525">
					<dim>960</dim>
					<dim>160</dim>
					<dim>1</dim>
					<dim>1</dim>
				</port>
			</output>
		</layer>
		<layer id="240" name="Conv_287/WithoutBiases" type="Convolution" version="opset1">
			<data strides="1, 1" dilations="1, 1" pads_begin="0, 0" pads_end="0, 0" auto_pad="explicit" />
			<input>
				<port id="0" precision="FP32">
					<dim>-1</dim>
					<dim>160</dim>
					<dim>23</dim>
					<dim>31</dim>
				</port>
				<port id="1" precision="FP32">
					<dim>960</dim>
					<dim>160</dim>
					<dim>1</dim>
					<dim>1</dim>
				</port>
			</input>
			<output>
				<port id="2" precision="FP32">
					<dim>-1</dim>
					<dim>960</dim>
					<dim>23</dim>
					<dim>31</dim>
				</port>
			</output>
		</layer>
		<layer id="241" name="Reshape_3629" type="Const" version="opset1">
			<data element_type="f32" shape="1, 960, 1, 1" offset="4677296" size="3840" />
			<output>
				<port id="0" precision="FP32">
					<dim>1</dim>
					<dim>960</dim>
					<dim>1</dim>
					<dim>1</dim>
				</port>
			</output>
		</layer>
		<layer id="242" name="Conv_287" type="Add" version="opset1">
			<data auto_broadcast="numpy" />
			<input>
				<port id="0" precision="FP32">
					<dim>-1</dim>
					<dim>960</dim>
					<dim>23</dim>
					<dim>31</dim>
				</port>
				<port id="1" precision="FP32">
					<dim>1</dim>
					<dim>960</dim>
					<dim>1</dim>
					<dim>1</dim>
				</port>
			</input>
			<output>
				<port id="2" precision="FP32" names="onnx::Clip_2524">
					<dim>-1</dim>
					<dim>960</dim>
					<dim>23</dim>
					<dim>31</dim>
				</port>
			</output>
		</layer>
		<layer id="243" name="Clip_290" type="Clamp" version="opset1">
			<data min="0" max="6" />
			<input>
				<port id="0" precision="FP32">
					<dim>-1</dim>
					<dim>960</dim>
					<dim>23</dim>
					<dim>31</dim>
				</port>
			</input>
			<output>
				<port id="1" precision="FP32" names="onnx::Conv_568">
					<dim>-1</dim>
					<dim>960</dim>
					<dim>23</dim>
					<dim>31</dim>
				</port>
			</output>
		</layer>
		<layer id="244" name="Reshape_3668" type="Const" version="opset1">
			<data element_type="f32" shape="960, 1, 1, 3, 3" offset="4681136" size="34560" />
			<output>
				<port id="0" precision="FP32">
					<dim>960</dim>
					<dim>1</dim>
					<dim>1</dim>
					<dim>3</dim>
					<dim>3</dim>
				</port>
			</output>
		</layer>
		<layer id="245" name="Conv_291/WithoutBiases" type="GroupConvolution" version="opset1">
			<data strides="1, 1" pads_begin="1, 1" pads_end="1, 1" dilations="1, 1" auto_pad="explicit" />
			<input>
				<port id="0" precision="FP32">
					<dim>-1</dim>
					<dim>960</dim>
					<dim>23</dim>
					<dim>31</dim>
				</port>
				<port id="1" precision="FP32">
					<dim>960</dim>
					<dim>1</dim>
					<dim>1</dim>
					<dim>3</dim>
					<dim>3</dim>
				</port>
			</input>
			<output>
				<port id="2" precision="FP32">
					<dim>-1</dim>
					<dim>960</dim>
					<dim>23</dim>
					<dim>31</dim>
				</port>
			</output>
		</layer>
		<layer id="246" name="Reshape_3754" type="Const" version="opset1">
			<data element_type="f32" shape="1, 960, 1, 1" offset="4715696" size="3840" />
			<output>
				<port id="0" precision="FP32">
					<dim>1</dim>
					<dim>960</dim>
					<dim>1</dim>
					<dim>1</dim>
				</port>
			</output>
		</layer>
		<layer id="247" name="Conv_291" type="Add" version="opset1">
			<data auto_broadcast="numpy" />
			<input>
				<port id="0" precision="FP32">
					<dim>-1</dim>
					<dim>960</dim>
					<dim>23</dim>
					<dim>31</dim>
				</port>
				<port id="1" precision="FP32">
					<dim>1</dim>
					<dim>960</dim>
					<dim>1</dim>
					<dim>1</dim>
				</port>
			</input>
			<output>
				<port id="2" precision="FP32" names="onnx::Clip_2527">
					<dim>-1</dim>
					<dim>960</dim>
					<dim>23</dim>
					<dim>31</dim>
				</port>
			</output>
		</layer>
		<layer id="248" name="Clip_294" type="Clamp" version="opset1">
			<data min="0" max="6" />
			<input>
				<port id="0" precision="FP32">
					<dim>-1</dim>
					<dim>960</dim>
					<dim>23</dim>
					<dim>31</dim>
				</port>
			</input>
			<output>
				<port id="1" precision="FP32" names="onnx::Conv_573">
					<dim>-1</dim>
					<dim>960</dim>
					<dim>23</dim>
					<dim>31</dim>
				</port>
			</output>
		</layer>
		<layer id="249" name="onnx::Conv_2531" type="Const" version="opset1">
			<data element_type="f32" shape="160, 960, 1, 1" offset="4719536" size="614400" />
			<output>
				<port id="0" precision="FP32" names="onnx::Conv_2531">
					<dim>160</dim>
					<dim>960</dim>
					<dim>1</dim>
					<dim>1</dim>
				</port>
			</output>
		</layer>
		<layer id="250" name="Conv_295/WithoutBiases" type="Convolution" version="opset1">
			<data strides="1, 1" dilations="1, 1" pads_begin="0, 0" pads_end="0, 0" auto_pad="explicit" />
			<input>
				<port id="0" precision="FP32">
					<dim>-1</dim>
					<dim>960</dim>
					<dim>23</dim>
					<dim>31</dim>
				</port>
				<port id="1" precision="FP32">
					<dim>160</dim>
					<dim>960</dim>
					<dim>1</dim>
					<dim>1</dim>
				</port>
			</input>
			<output>
				<port id="2" precision="FP32">
					<dim>-1</dim>
					<dim>160</dim>
					<dim>23</dim>
					<dim>31</dim>
				</port>
			</output>
		</layer>
		<layer id="251" name="Reshape_3806" type="Const" version="opset1">
			<data element_type="f32" shape="1, 160, 1, 1" offset="5333936" size="640" />
			<output>
				<port id="0" precision="FP32">
					<dim>1</dim>
					<dim>160</dim>
					<dim>1</dim>
					<dim>1</dim>
				</port>
			</output>
		</layer>
		<layer id="252" name="Conv_295" type="Add" version="opset1">
			<data auto_broadcast="numpy" />
			<input>
				<port id="0" precision="FP32">
					<dim>-1</dim>
					<dim>160</dim>
					<dim>23</dim>
					<dim>31</dim>
				</port>
				<port id="1" precision="FP32">
					<dim>1</dim>
					<dim>160</dim>
					<dim>1</dim>
					<dim>1</dim>
				</port>
			</input>
			<output>
				<port id="2" precision="FP32" names="onnx::Add_2530">
					<dim>-1</dim>
					<dim>160</dim>
					<dim>23</dim>
					<dim>31</dim>
				</port>
			</output>
		</layer>
		<layer id="253" name="Add_296" type="Add" version="opset1">
			<data auto_broadcast="numpy" />
			<input>
				<port id="0" precision="FP32">
					<dim>-1</dim>
					<dim>160</dim>
					<dim>23</dim>
					<dim>31</dim>
				</port>
				<port id="1" precision="FP32">
					<dim>-1</dim>
					<dim>160</dim>
					<dim>23</dim>
					<dim>31</dim>
				</port>
			</input>
			<output>
				<port id="2" precision="FP32" names="input.255">
					<dim>-1</dim>
					<dim>160</dim>
					<dim>23</dim>
					<dim>31</dim>
				</port>
			</output>
		</layer>
		<layer id="254" name="onnx::Conv_2534" type="Const" version="opset1">
			<data element_type="f32" shape="960, 160, 1, 1" offset="5334576" size="614400" />
			<output>
				<port id="0" precision="FP32" names="onnx::Conv_2534">
					<dim>960</dim>
					<dim>160</dim>
					<dim>1</dim>
					<dim>1</dim>
				</port>
			</output>
		</layer>
		<layer id="255" name="Conv_297/WithoutBiases" type="Convolution" version="opset1">
			<data strides="1, 1" dilations="1, 1" pads_begin="0, 0" pads_end="0, 0" auto_pad="explicit" />
			<input>
				<port id="0" precision="FP32">
					<dim>-1</dim>
					<dim>160</dim>
					<dim>23</dim>
					<dim>31</dim>
				</port>
				<port id="1" precision="FP32">
					<dim>960</dim>
					<dim>160</dim>
					<dim>1</dim>
					<dim>1</dim>
				</port>
			</input>
			<output>
				<port id="2" precision="FP32">
					<dim>-1</dim>
					<dim>960</dim>
					<dim>23</dim>
					<dim>31</dim>
				</port>
			</output>
		</layer>
		<layer id="256" name="Reshape_3855" type="Const" version="opset1">
			<data element_type="f32" shape="1, 960, 1, 1" offset="5948976" size="3840" />
			<output>
				<port id="0" precision="FP32">
					<dim>1</dim>
					<dim>960</dim>
					<dim>1</dim>
					<dim>1</dim>
				</port>
			</output>
		</layer>
		<layer id="257" name="Conv_297" type="Add" version="opset1">
			<data auto_broadcast="numpy" />
			<input>
				<port id="0" precision="FP32">
					<dim>-1</dim>
					<dim>960</dim>
					<dim>23</dim>
					<dim>31</dim>
				</port>
				<port id="1" precision="FP32">
					<dim>1</dim>
					<dim>960</dim>
					<dim>1</dim>
					<dim>1</dim>
				</port>
			</input>
			<output>
				<port id="2" precision="FP32" names="onnx::Clip_2533">
					<dim>-1</dim>
					<dim>960</dim>
					<dim>23</dim>
					<dim>31</dim>
				</port>
			</output>
		</layer>
		<layer id="258" name="Clip_300" type="Clamp" version="opset1">
			<data min="0" max="6" />
			<input>
				<port id="0" precision="FP32">
					<dim>-1</dim>
					<dim>960</dim>
					<dim>23</dim>
					<dim>31</dim>
				</port>
			</input>
			<output>
				<port id="1" precision="FP32" names="onnx::Conv_581">
					<dim>-1</dim>
					<dim>960</dim>
					<dim>23</dim>
					<dim>31</dim>
				</port>
			</output>
		</layer>
		<layer id="259" name="Reshape_3894" type="Const" version="opset1">
			<data element_type="f32" shape="960, 1, 1, 3, 3" offset="5952816" size="34560" />
			<output>
				<port id="0" precision="FP32">
					<dim>960</dim>
					<dim>1</dim>
					<dim>1</dim>
					<dim>3</dim>
					<dim>3</dim>
				</port>
			</output>
		</layer>
		<layer id="260" name="Conv_301/WithoutBiases" type="GroupConvolution" version="opset1">
			<data strides="1, 1" pads_begin="1, 1" pads_end="1, 1" dilations="1, 1" auto_pad="explicit" />
			<input>
				<port id="0" precision="FP32">
					<dim>-1</dim>
					<dim>960</dim>
					<dim>23</dim>
					<dim>31</dim>
				</port>
				<port id="1" precision="FP32">
					<dim>960</dim>
					<dim>1</dim>
					<dim>1</dim>
					<dim>3</dim>
					<dim>3</dim>
				</port>
			</input>
			<output>
				<port id="2" precision="FP32">
					<dim>-1</dim>
					<dim>960</dim>
					<dim>23</dim>
					<dim>31</dim>
				</port>
			</output>
		</layer>
		<layer id="261" name="Reshape_3980" type="Const" version="opset1">
			<data element_type="f32" shape="1, 960, 1, 1" offset="5987376" size="3840" />
			<output>
				<port id="0" precision="FP32">
					<dim>1</dim>
					<dim>960</dim>
					<dim>1</dim>
					<dim>1</dim>
				</port>
			</output>
		</layer>
		<layer id="262" name="Conv_301" type="Add" version="opset1">
			<data auto_broadcast="numpy" />
			<input>
				<port id="0" precision="FP32">
					<dim>-1</dim>
					<dim>960</dim>
					<dim>23</dim>
					<dim>31</dim>
				</port>
				<port id="1" precision="FP32">
					<dim>1</dim>
					<dim>960</dim>
					<dim>1</dim>
					<dim>1</dim>
				</port>
			</input>
			<output>
				<port id="2" precision="FP32" names="onnx::Clip_2536">
					<dim>-1</dim>
					<dim>960</dim>
					<dim>23</dim>
					<dim>31</dim>
				</port>
			</output>
		</layer>
		<layer id="263" name="Clip_304" type="Clamp" version="opset1">
			<data min="0" max="6" />
			<input>
				<port id="0" precision="FP32">
					<dim>-1</dim>
					<dim>960</dim>
					<dim>23</dim>
					<dim>31</dim>
				</port>
			</input>
			<output>
				<port id="1" precision="FP32" names="onnx::Conv_586">
					<dim>-1</dim>
					<dim>960</dim>
					<dim>23</dim>
					<dim>31</dim>
				</port>
			</output>
		</layer>
		<layer id="264" name="onnx::Conv_2540" type="Const" version="opset1">
			<data element_type="f32" shape="320, 960, 1, 1" offset="5991216" size="1228800" />
			<output>
				<port id="0" precision="FP32" names="onnx::Conv_2540">
					<dim>320</dim>
					<dim>960</dim>
					<dim>1</dim>
					<dim>1</dim>
				</port>
			</output>
		</layer>
		<layer id="265" name="Conv_305/WithoutBiases" type="Convolution" version="opset1">
			<data strides="1, 1" dilations="1, 1" pads_begin="0, 0" pads_end="0, 0" auto_pad="explicit" />
			<input>
				<port id="0" precision="FP32">
					<dim>-1</dim>
					<dim>960</dim>
					<dim>23</dim>
					<dim>31</dim>
				</port>
				<port id="1" precision="FP32">
					<dim>320</dim>
					<dim>960</dim>
					<dim>1</dim>
					<dim>1</dim>
				</port>
			</input>
			<output>
				<port id="2" precision="FP32">
					<dim>-1</dim>
					<dim>320</dim>
					<dim>23</dim>
					<dim>31</dim>
				</port>
			</output>
		</layer>
		<layer id="266" name="Reshape_4032" type="Const" version="opset1">
			<data element_type="f32" shape="1, 320, 1, 1" offset="7220016" size="1280" />
			<output>
				<port id="0" precision="FP32">
					<dim>1</dim>
					<dim>320</dim>
					<dim>1</dim>
					<dim>1</dim>
				</port>
			</output>
		</layer>
		<layer id="267" name="Conv_305" type="Add" version="opset1">
			<data auto_broadcast="numpy" />
			<input>
				<port id="0" precision="FP32">
					<dim>-1</dim>
					<dim>320</dim>
					<dim>23</dim>
					<dim>31</dim>
				</port>
				<port id="1" precision="FP32">
					<dim>1</dim>
					<dim>320</dim>
					<dim>1</dim>
					<dim>1</dim>
				</port>
			</input>
			<output>
				<port id="2" precision="FP32" names="input.271">
					<dim>-1</dim>
					<dim>320</dim>
					<dim>23</dim>
					<dim>31</dim>
				</port>
			</output>
		</layer>
		<layer id="268" name="neck.lateral_convs.2.conv.weight" type="Const" version="opset1">
			<data element_type="f32" shape="64, 320, 1, 1" offset="7221296" size="81920" />
			<output>
				<port id="0" precision="FP32" names="neck.lateral_convs.2.conv.weight">
					<dim>64</dim>
					<dim>320</dim>
					<dim>1</dim>
					<dim>1</dim>
				</port>
			</output>
		</layer>
		<layer id="269" name="Conv_308/WithoutBiases" type="Convolution" version="opset1">
			<data strides="1, 1" dilations="1, 1" pads_begin="0, 0" pads_end="0, 0" auto_pad="explicit" />
			<input>
				<port id="0" precision="FP32">
					<dim>-1</dim>
					<dim>320</dim>
					<dim>23</dim>
					<dim>31</dim>
				</port>
				<port id="1" precision="FP32">
					<dim>64</dim>
					<dim>320</dim>
					<dim>1</dim>
					<dim>1</dim>
				</port>
			</input>
			<output>
				<port id="2" precision="FP32">
					<dim>-1</dim>
					<dim>64</dim>
					<dim>23</dim>
					<dim>31</dim>
				</port>
			</output>
		</layer>
		<layer id="270" name="Reshape_4176" type="Const" version="opset1">
			<data element_type="f32" shape="1, 64, 1, 1" offset="7303216" size="256" />
			<output>
				<port id="0" precision="FP32">
					<dim>1</dim>
					<dim>64</dim>
					<dim>1</dim>
					<dim>1</dim>
				</port>
			</output>
		</layer>
		<layer id="271" name="Conv_308" type="Add" version="opset1">
			<data auto_broadcast="numpy" />
			<input>
				<port id="0" precision="FP32">
					<dim>-1</dim>
					<dim>64</dim>
					<dim>23</dim>
					<dim>31</dim>
				</port>
				<port id="1" precision="FP32">
					<dim>1</dim>
					<dim>64</dim>
					<dim>1</dim>
					<dim>1</dim>
				</port>
			</input>
			<output>
				<port id="2" precision="FP32" names="input.275">
					<dim>-1</dim>
					<dim>64</dim>
					<dim>23</dim>
					<dim>31</dim>
				</port>
			</output>
		</layer>
		<layer id="272" name="Shape_318" type="ShapeOf" version="opset3">
			<data output_type="i64" />
			<input>
				<port id="0" precision="FP32">
					<dim>-1</dim>
					<dim>64</dim>
					<dim>23</dim>
					<dim>31</dim>
				</port>
			</input>
			<output>
				<port id="1" precision="I64" names="onnx::Slice_601">
					<dim>4</dim>
				</port>
			</output>
		</layer>
		<layer id="273" name="Constant_320" type="Const" version="opset1">
			<data element_type="i64" shape="1" offset="16" size="8" />
			<output>
				<port id="0" precision="I64" names="onnx::Slice_603">
					<dim>1</dim>
				</port>
			</output>
		</layer>
		<layer id="274" name="Constant_321" type="Const" version="opset1">
			<data element_type="i64" shape="1" offset="7303472" size="8" />
			<output>
				<port id="0" precision="I64" names="onnx::Slice_604">
					<dim>1</dim>
				</port>
			</output>
		</layer>
		<layer id="275" name="Broadcast_4223" type="Const" version="opset1">
			<data element_type="i64" shape="1" offset="7303480" size="8" />
			<output>
				<port id="0" precision="I64">
					<dim>1</dim>
				</port>
			</output>
		</layer>
		<layer id="276" name="Slice_322" type="StridedSlice" version="opset1">
			<data begin_mask="0" end_mask="0" new_axis_mask="" shrink_axis_mask="" ellipsis_mask="" />
			<input>
				<port id="0" precision="I64">
					<dim>4</dim>
				</port>
				<port id="1" precision="I64">
					<dim>1</dim>
				</port>
				<port id="2" precision="I64">
					<dim>1</dim>
				</port>
				<port id="3" precision="I64">
					<dim>1</dim>
				</port>
			</input>
			<output>
				<port id="4" precision="I64" names="onnx::Concat_605">
					<dim>2</dim>
				</port>
			</output>
		</layer>
		<layer id="277" name="Shape_309" type="ShapeOf" version="opset3">
			<data output_type="i64" />
			<input>
				<port id="0" precision="FP32">
					<dim>-1</dim>
					<dim>64</dim>
					<dim>46</dim>
					<dim>62</dim>
				</port>
			</input>
			<output>
				<port id="1" precision="I64" names="onnx::Gather_592,onnx::Gather_595">
					<dim>4</dim>
				</port>
			</output>
		</layer>
		<layer id="278" name="Constant_179303" type="Const" version="opset1">
			<data element_type="i64" shape="2" offset="7303488" size="16" />
			<output>
				<port id="0" precision="I64">
					<dim>2</dim>
				</port>
			</output>
		</layer>
		<layer id="279" name="Constant_179304" type="Const" version="opset1">
			<data element_type="i64" shape="" offset="16" size="8" />
			<output>
				<port id="0" precision="I64" />
			</output>
		</layer>
		<layer id="280" name="Gather_179305" type="Gather" version="opset8">
			<data batch_dims="0" />
			<input>
				<port id="0" precision="I64">
					<dim>4</dim>
				</port>
				<port id="1" precision="I64">
					<dim>2</dim>
				</port>
				<port id="2" precision="I64" />
			</input>
			<output>
				<port id="3" precision="I64" names="onnx::Cast_600,onnx::Concat_606">
					<dim>2</dim>
				</port>
			</output>
		</layer>
		<layer id="281" name="Concat_324" type="Concat" version="opset1">
			<data axis="0" />
			<input>
				<port id="0" precision="I64">
					<dim>2</dim>
				</port>
				<port id="1" precision="I64">
					<dim>2</dim>
				</port>
			</input>
			<output>
				<port id="2" precision="I64" names="onnx::Resize_607">
					<dim>4</dim>
				</port>
			</output>
		</layer>
		<layer id="282" name="Convert_4246" type="Convert" version="opset1">
			<data destination_type="f32" />
			<input>
				<port id="0" precision="I64">
					<dim>4</dim>
				</port>
			</input>
			<output>
				<port id="1" precision="FP32">
					<dim>4</dim>
				</port>
			</output>
		</layer>
		<layer id="283" name="Convert_4245" type="Convert" version="opset1">
			<data destination_type="f32" />
			<input>
				<port id="0" precision="I64">
					<dim>4</dim>
				</port>
			</input>
			<output>
				<port id="1" precision="FP32">
					<dim>4</dim>
				</port>
			</output>
		</layer>
		<layer id="284" name="Divide_4247" type="Divide" version="opset1">
			<data auto_broadcast="numpy" m_pythondiv="true" />
			<input>
				<port id="0" precision="FP32">
					<dim>4</dim>
				</port>
				<port id="1" precision="FP32">
					<dim>4</dim>
				</port>
			</input>
			<output>
				<port id="2" precision="FP32">
					<dim>4</dim>
				</port>
			</output>
		</layer>
		<layer id="285" name="Constant_211693" type="Const" version="opset1">
			<data element_type="f32" shape="1" offset="7303504" size="4" />
			<output>
				<port id="0" precision="FP32">
					<dim>1</dim>
				</port>
			</output>
		</layer>
		<layer id="286" name="Add_4249" type="Add" version="opset1">
			<data auto_broadcast="numpy" />
			<input>
				<port id="0" precision="FP32">
					<dim>4</dim>
				</port>
				<port id="1" precision="FP32">
					<dim>1</dim>
				</port>
			</input>
			<output>
				<port id="2" precision="FP32">
					<dim>4</dim>
				</port>
			</output>
		</layer>
		<layer id="287" name="Resize_327" type="Interpolate" version="opset4">
			<data mode="nearest" shape_calculation_mode="sizes" coordinate_transformation_mode="asymmetric" nearest_mode="floor" antialias="false" pads_begin="0, 0, 0, 0" pads_end="0, 0, 0, 0" cube_coeff="-0.75" />
			<input>
				<port id="0" precision="FP32">
					<dim>-1</dim>
					<dim>64</dim>
					<dim>23</dim>
					<dim>31</dim>
				</port>
				<port id="1" precision="I64">
					<dim>4</dim>
				</port>
				<port id="2" precision="FP32">
					<dim>4</dim>
				</port>
			</input>
			<output>
				<port id="3" precision="FP32" names="onnx::Add_610">
					<dim>-1</dim>
					<dim>64</dim>
					<dim>46</dim>
					<dim>62</dim>
				</port>
			</output>
		</layer>
		<layer id="288" name="Add_328" type="Add" version="opset1">
			<data auto_broadcast="numpy" />
			<input>
				<port id="0" precision="FP32">
					<dim>-1</dim>
					<dim>64</dim>
					<dim>46</dim>
					<dim>62</dim>
				</port>
				<port id="1" precision="FP32">
					<dim>-1</dim>
					<dim>64</dim>
					<dim>46</dim>
					<dim>62</dim>
				</port>
			</input>
			<output>
				<port id="2" precision="FP32" names="input.279">
					<dim>-1</dim>
					<dim>64</dim>
					<dim>46</dim>
					<dim>62</dim>
				</port>
			</output>
		</layer>
		<layer id="289" name="Shape_338" type="ShapeOf" version="opset3">
			<data output_type="i64" />
			<input>
				<port id="0" precision="FP32">
					<dim>-1</dim>
					<dim>64</dim>
					<dim>46</dim>
					<dim>62</dim>
				</port>
			</input>
			<output>
				<port id="1" precision="I64" names="onnx::Slice_621">
					<dim>4</dim>
				</port>
			</output>
		</layer>
		<layer id="290" name="Constant_340" type="Const" version="opset1">
			<data element_type="i64" shape="1" offset="16" size="8" />
			<output>
				<port id="0" precision="I64" names="onnx::Slice_623">
					<dim>1</dim>
				</port>
			</output>
		</layer>
		<layer id="291" name="Constant_341" type="Const" version="opset1">
			<data element_type="i64" shape="1" offset="7303472" size="8" />
			<output>
				<port id="0" precision="I64" names="onnx::Slice_624">
					<dim>1</dim>
				</port>
			</output>
		</layer>
		<layer id="292" name="Broadcast_4446" type="Const" version="opset1">
			<data element_type="i64" shape="1" offset="7303480" size="8" />
			<output>
				<port id="0" precision="I64">
					<dim>1</dim>
				</port>
			</output>
		</layer>
		<layer id="293" name="Slice_342" type="StridedSlice" version="opset1">
			<data begin_mask="0" end_mask="0" new_axis_mask="" shrink_axis_mask="" ellipsis_mask="" />
			<input>
				<port id="0" precision="I64">
					<dim>4</dim>
				</port>
				<port id="1" precision="I64">
					<dim>1</dim>
				</port>
				<port id="2" precision="I64">
					<dim>1</dim>
				</port>
				<port id="3" precision="I64">
					<dim>1</dim>
				</port>
			</input>
			<output>
				<port id="4" precision="I64" names="onnx::Concat_625">
					<dim>2</dim>
				</port>
			</output>
		</layer>
		<layer id="294" name="Shape_329" type="ShapeOf" version="opset3">
			<data output_type="i64" />
			<input>
				<port id="0" precision="FP32">
					<dim>-1</dim>
					<dim>64</dim>
					<dim>92</dim>
					<dim>124</dim>
				</port>
			</input>
			<output>
				<port id="1" precision="I64" names="onnx::Gather_612,onnx::Gather_615">
					<dim>4</dim>
				</port>
			</output>
		</layer>
		<layer id="295" name="Constant_179307" type="Const" version="opset1">
			<data element_type="i64" shape="2" offset="7303488" size="16" />
			<output>
				<port id="0" precision="I64">
					<dim>2</dim>
				</port>
			</output>
		</layer>
		<layer id="296" name="Constant_179308" type="Const" version="opset1">
			<data element_type="i64" shape="" offset="16" size="8" />
			<output>
				<port id="0" precision="I64" />
			</output>
		</layer>
		<layer id="297" name="Gather_179309" type="Gather" version="opset8">
			<data batch_dims="0" />
			<input>
				<port id="0" precision="I64">
					<dim>4</dim>
				</port>
				<port id="1" precision="I64">
					<dim>2</dim>
				</port>
				<port id="2" precision="I64" />
			</input>
			<output>
				<port id="3" precision="I64" names="onnx::Cast_620,onnx::Concat_626">
					<dim>2</dim>
				</port>
			</output>
		</layer>
		<layer id="298" name="Concat_344" type="Concat" version="opset1">
			<data axis="0" />
			<input>
				<port id="0" precision="I64">
					<dim>2</dim>
				</port>
				<port id="1" precision="I64">
					<dim>2</dim>
				</port>
			</input>
			<output>
				<port id="2" precision="I64" names="onnx::Resize_627">
					<dim>4</dim>
				</port>
			</output>
		</layer>
		<layer id="299" name="Convert_4469" type="Convert" version="opset1">
			<data destination_type="f32" />
			<input>
				<port id="0" precision="I64">
					<dim>4</dim>
				</port>
			</input>
			<output>
				<port id="1" precision="FP32">
					<dim>4</dim>
				</port>
			</output>
		</layer>
		<layer id="300" name="Convert_4468" type="Convert" version="opset1">
			<data destination_type="f32" />
			<input>
				<port id="0" precision="I64">
					<dim>4</dim>
				</port>
			</input>
			<output>
				<port id="1" precision="FP32">
					<dim>4</dim>
				</port>
			</output>
		</layer>
		<layer id="301" name="Divide_4470" type="Divide" version="opset1">
			<data auto_broadcast="numpy" m_pythondiv="true" />
			<input>
				<port id="0" precision="FP32">
					<dim>4</dim>
				</port>
				<port id="1" precision="FP32">
					<dim>4</dim>
				</port>
			</input>
			<output>
				<port id="2" precision="FP32">
					<dim>4</dim>
				</port>
			</output>
		</layer>
		<layer id="302" name="Constant_211694" type="Const" version="opset1">
			<data element_type="f32" shape="1" offset="7303504" size="4" />
			<output>
				<port id="0" precision="FP32">
					<dim>1</dim>
				</port>
			</output>
		</layer>
		<layer id="303" name="Add_4472" type="Add" version="opset1">
			<data auto_broadcast="numpy" />
			<input>
				<port id="0" precision="FP32">
					<dim>4</dim>
				</port>
				<port id="1" precision="FP32">
					<dim>1</dim>
				</port>
			</input>
			<output>
				<port id="2" precision="FP32">
					<dim>4</dim>
				</port>
			</output>
		</layer>
		<layer id="304" name="Resize_347" type="Interpolate" version="opset4">
			<data mode="nearest" shape_calculation_mode="sizes" coordinate_transformation_mode="asymmetric" nearest_mode="floor" antialias="false" pads_begin="0, 0, 0, 0" pads_end="0, 0, 0, 0" cube_coeff="-0.75" />
			<input>
				<port id="0" precision="FP32">
					<dim>-1</dim>
					<dim>64</dim>
					<dim>46</dim>
					<dim>62</dim>
				</port>
				<port id="1" precision="I64">
					<dim>4</dim>
				</port>
				<port id="2" precision="FP32">
					<dim>4</dim>
				</port>
			</input>
			<output>
				<port id="3" precision="FP32" names="onnx::Add_630">
					<dim>-1</dim>
					<dim>64</dim>
					<dim>92</dim>
					<dim>124</dim>
				</port>
			</output>
		</layer>
		<layer id="305" name="Add_348" type="Add" version="opset1">
			<data auto_broadcast="numpy" />
			<input>
				<port id="0" precision="FP32">
					<dim>-1</dim>
					<dim>64</dim>
					<dim>92</dim>
					<dim>124</dim>
				</port>
				<port id="1" precision="FP32">
					<dim>-1</dim>
					<dim>64</dim>
					<dim>92</dim>
					<dim>124</dim>
				</port>
			</input>
			<output>
				<port id="2" precision="FP32" names="input.283">
					<dim>-1</dim>
					<dim>64</dim>
					<dim>92</dim>
					<dim>124</dim>
				</port>
			</output>
		</layer>
		<layer id="306" name="neck.fpn_convs.0.conv.weight" type="Const" version="opset1">
			<data element_type="f32" shape="64, 64, 3, 3" offset="7303508" size="147456" />
			<output>
				<port id="0" precision="FP32" names="neck.fpn_convs.0.conv.weight">
					<dim>64</dim>
					<dim>64</dim>
					<dim>3</dim>
					<dim>3</dim>
				</port>
			</output>
		</layer>
		<layer id="307" name="Conv_349/WithoutBiases" type="Convolution" version="opset1">
			<data strides="1, 1" dilations="1, 1" pads_begin="1, 1" pads_end="1, 1" auto_pad="explicit" />
			<input>
				<port id="0" precision="FP32">
					<dim>-1</dim>
					<dim>64</dim>
					<dim>92</dim>
					<dim>124</dim>
				</port>
				<port id="1" precision="FP32">
					<dim>64</dim>
					<dim>64</dim>
					<dim>3</dim>
					<dim>3</dim>
				</port>
			</input>
			<output>
				<port id="2" precision="FP32">
					<dim>-1</dim>
					<dim>64</dim>
					<dim>92</dim>
					<dim>124</dim>
				</port>
			</output>
		</layer>
		<layer id="308" name="Reshape_4670" type="Const" version="opset1">
			<data element_type="f32" shape="1, 64, 1, 1" offset="7450964" size="256" />
			<output>
				<port id="0" precision="FP32">
					<dim>1</dim>
					<dim>64</dim>
					<dim>1</dim>
					<dim>1</dim>
				</port>
			</output>
		</layer>
		<layer id="309" name="Conv_349" type="Add" version="opset1">
			<data auto_broadcast="numpy" />
			<input>
				<port id="0" precision="FP32">
					<dim>-1</dim>
					<dim>64</dim>
					<dim>92</dim>
					<dim>124</dim>
				</port>
				<port id="1" precision="FP32">
					<dim>1</dim>
					<dim>64</dim>
					<dim>1</dim>
					<dim>1</dim>
				</port>
			</input>
			<output>
				<port id="2" precision="FP32" names="input.287">
					<dim>-1</dim>
					<dim>64</dim>
					<dim>92</dim>
					<dim>124</dim>
				</port>
			</output>
		</layer>
		<layer id="310" name="bbox_head.cls_convs.0.conv.weight" type="Const" version="opset1">
			<data element_type="f32" shape="64, 64, 3, 3" offset="7451220" size="147456" />
			<output>
				<port id="0" precision="FP32" names="bbox_head.cls_convs.0.conv.weight">
					<dim>64</dim>
					<dim>64</dim>
					<dim>3</dim>
					<dim>3</dim>
				</port>
			</output>
		</layer>
		<layer id="311" name="Conv_355" type="Convolution" version="opset1">
			<data strides="1, 1" dilations="1, 1" pads_begin="1, 1" pads_end="1, 1" auto_pad="explicit" />
			<input>
				<port id="0" precision="FP32">
					<dim>-1</dim>
					<dim>64</dim>
					<dim>92</dim>
					<dim>124</dim>
				</port>
				<port id="1" precision="FP32">
					<dim>64</dim>
					<dim>64</dim>
					<dim>3</dim>
					<dim>3</dim>
				</port>
			</input>
			<output>
				<port id="2" precision="FP32" names="input.311">
					<dim>-1</dim>
					<dim>64</dim>
					<dim>92</dim>
					<dim>124</dim>
				</port>
			</output>
		</layer>
		<layer id="312" name="Constant_356" type="Const" version="opset1">
			<data element_type="i64" shape="3" offset="7598676" size="24" />
			<output>
				<port id="0" precision="I64" names="onnx::Reshape_639">
					<dim>3</dim>
				</port>
			</output>
		</layer>
		<layer id="313" name="Reshape_357" type="Reshape" version="opset1">
			<data special_zero="true" />
			<input>
				<port id="0" precision="FP32">
					<dim>-1</dim>
					<dim>64</dim>
					<dim>92</dim>
					<dim>124</dim>
				</port>
				<port id="1" precision="I64">
					<dim>3</dim>
				</port>
			</input>
			<output>
				<port id="2" precision="FP32" names="onnx::InstanceNormalization_640">
					<dim>-1</dim>
					<dim>32</dim>
					<dim>22816</dim>
				</port>
			</output>
		</layer>
		<layer id="314" name="Constant_4902" type="Const" version="opset1">
			<data element_type="i64" shape="1" offset="7303472" size="8" />
			<output>
				<port id="0" precision="I64">
					<dim>1</dim>
				</port>
			</output>
		</layer>
		<layer id="315" name="MVN_4903" type="MVN" version="opset6">
			<data eps="9.9999997473787516e-06" normalize_variance="true" eps_mode="INSIDE_SQRT" />
			<input>
				<port id="0" precision="FP32">
					<dim>-1</dim>
					<dim>32</dim>
					<dim>22816</dim>
				</port>
				<port id="1" precision="I64">
					<dim>1</dim>
				</port>
			</input>
			<output>
				<port id="2" precision="FP32" names="onnx::Reshape_643">
					<dim>-1</dim>
					<dim>32</dim>
					<dim>22816</dim>
				</port>
			</output>
		</layer>
		<layer id="316" name="Shape_361" type="ShapeOf" version="opset3">
			<data output_type="i64" />
			<input>
				<port id="0" precision="FP32">
					<dim>-1</dim>
					<dim>64</dim>
					<dim>92</dim>
					<dim>124</dim>
				</port>
			</input>
			<output>
				<port id="1" precision="I64" names="onnx::Reshape_644">
					<dim>4</dim>
				</port>
			</output>
		</layer>
		<layer id="317" name="Reshape_362" type="Reshape" version="opset1">
			<data special_zero="true" />
			<input>
				<port id="0" precision="FP32">
					<dim>-1</dim>
					<dim>32</dim>
					<dim>22816</dim>
				</port>
				<port id="1" precision="I64">
					<dim>4</dim>
				</port>
			</input>
			<output>
				<port id="2" precision="FP32" names="onnx::Mul_645">
					<dim>-1</dim>
					<dim>64</dim>
					<dim>92</dim>
					<dim>124</dim>
				</port>
			</output>
		</layer>
		<layer id="318" name="Constant_211695" type="Const" version="opset1">
			<data element_type="f32" shape="1, 64, 1, 1" offset="7598700" size="256" />
			<output>
				<port id="0" precision="FP32">
					<dim>1</dim>
					<dim>64</dim>
					<dim>1</dim>
					<dim>1</dim>
				</port>
			</output>
		</layer>
		<layer id="319" name="Mul_363" type="Multiply" version="opset1">
			<data auto_broadcast="numpy" />
			<input>
				<port id="0" precision="FP32">
					<dim>-1</dim>
					<dim>64</dim>
					<dim>92</dim>
					<dim>124</dim>
				</port>
				<port id="1" precision="FP32">
					<dim>1</dim>
					<dim>64</dim>
					<dim>1</dim>
					<dim>1</dim>
				</port>
			</input>
			<output>
				<port id="2" precision="FP32" names="onnx::Add_647">
					<dim>-1</dim>
					<dim>64</dim>
					<dim>92</dim>
					<dim>124</dim>
				</port>
			</output>
		</layer>
		<layer id="320" name="Constant_211696" type="Const" version="opset1">
			<data element_type="f32" shape="1, 64, 1, 1" offset="7598956" size="256" />
			<output>
				<port id="0" precision="FP32">
					<dim>1</dim>
					<dim>64</dim>
					<dim>1</dim>
					<dim>1</dim>
				</port>
			</output>
		</layer>
		<layer id="321" name="Add_364" type="Add" version="opset1">
			<data auto_broadcast="numpy" />
			<input>
				<port id="0" precision="FP32">
					<dim>-1</dim>
					<dim>64</dim>
					<dim>92</dim>
					<dim>124</dim>
				</port>
				<port id="1" precision="FP32">
					<dim>1</dim>
					<dim>64</dim>
					<dim>1</dim>
					<dim>1</dim>
				</port>
			</input>
			<output>
				<port id="2" precision="FP32" names="input.315">
					<dim>-1</dim>
					<dim>64</dim>
					<dim>92</dim>
					<dim>124</dim>
				</port>
			</output>
		</layer>
		<layer id="322" name="Relu_365" type="ReLU" version="opset1">
			<input>
				<port id="0" precision="FP32">
					<dim>-1</dim>
					<dim>64</dim>
					<dim>92</dim>
					<dim>124</dim>
				</port>
			</input>
			<output>
				<port id="1" precision="FP32" names="onnx::Conv_650">
					<dim>-1</dim>
					<dim>64</dim>
					<dim>92</dim>
					<dim>124</dim>
				</port>
			</output>
		</layer>
		<layer id="323" name="bbox_head.cls_convs.1.conv.weight" type="Const" version="opset1">
			<data element_type="f32" shape="64, 64, 3, 3" offset="7599212" size="147456" />
			<output>
				<port id="0" precision="FP32" names="bbox_head.cls_convs.1.conv.weight">
					<dim>64</dim>
					<dim>64</dim>
					<dim>3</dim>
					<dim>3</dim>
				</port>
			</output>
		</layer>
		<layer id="324" name="Conv_366" type="Convolution" version="opset1">
			<data strides="1, 1" dilations="1, 1" pads_begin="1, 1" pads_end="1, 1" auto_pad="explicit" />
			<input>
				<port id="0" precision="FP32">
					<dim>-1</dim>
					<dim>64</dim>
					<dim>92</dim>
					<dim>124</dim>
				</port>
				<port id="1" precision="FP32">
					<dim>64</dim>
					<dim>64</dim>
					<dim>3</dim>
					<dim>3</dim>
				</port>
			</input>
			<output>
				<port id="2" precision="FP32" names="input.319">
					<dim>-1</dim>
					<dim>64</dim>
					<dim>92</dim>
					<dim>124</dim>
				</port>
			</output>
		</layer>
		<layer id="325" name="Constant_367" type="Const" version="opset1">
			<data element_type="i64" shape="3" offset="7598676" size="24" />
			<output>
				<port id="0" precision="I64" names="onnx::Reshape_652">
					<dim>3</dim>
				</port>
			</output>
		</layer>
		<layer id="326" name="Reshape_368" type="Reshape" version="opset1">
			<data special_zero="true" />
			<input>
				<port id="0" precision="FP32">
					<dim>-1</dim>
					<dim>64</dim>
					<dim>92</dim>
					<dim>124</dim>
				</port>
				<port id="1" precision="I64">
					<dim>3</dim>
				</port>
			</input>
			<output>
				<port id="2" precision="FP32" names="onnx::InstanceNormalization_653">
					<dim>-1</dim>
					<dim>32</dim>
					<dim>22816</dim>
				</port>
			</output>
		</layer>
		<layer id="327" name="Constant_5022" type="Const" version="opset1">
			<data element_type="i64" shape="1" offset="7303472" size="8" />
			<output>
				<port id="0" precision="I64">
					<dim>1</dim>
				</port>
			</output>
		</layer>
		<layer id="328" name="MVN_5023" type="MVN" version="opset6">
			<data eps="9.9999997473787516e-06" normalize_variance="true" eps_mode="INSIDE_SQRT" />
			<input>
				<port id="0" precision="FP32">
					<dim>-1</dim>
					<dim>32</dim>
					<dim>22816</dim>
				</port>
				<port id="1" precision="I64">
					<dim>1</dim>
				</port>
			</input>
			<output>
				<port id="2" precision="FP32" names="onnx::Reshape_656">
					<dim>-1</dim>
					<dim>32</dim>
					<dim>22816</dim>
				</port>
			</output>
		</layer>
		<layer id="329" name="Shape_372" type="ShapeOf" version="opset3">
			<data output_type="i64" />
			<input>
				<port id="0" precision="FP32">
					<dim>-1</dim>
					<dim>64</dim>
					<dim>92</dim>
					<dim>124</dim>
				</port>
			</input>
			<output>
				<port id="1" precision="I64" names="onnx::Reshape_657">
					<dim>4</dim>
				</port>
			</output>
		</layer>
		<layer id="330" name="Reshape_373" type="Reshape" version="opset1">
			<data special_zero="true" />
			<input>
				<port id="0" precision="FP32">
					<dim>-1</dim>
					<dim>32</dim>
					<dim>22816</dim>
				</port>
				<port id="1" precision="I64">
					<dim>4</dim>
				</port>
			</input>
			<output>
				<port id="2" precision="FP32" names="onnx::Mul_658">
					<dim>-1</dim>
					<dim>64</dim>
					<dim>92</dim>
					<dim>124</dim>
				</port>
			</output>
		</layer>
		<layer id="331" name="Constant_211697" type="Const" version="opset1">
			<data element_type="f32" shape="1, 64, 1, 1" offset="7746668" size="256" />
			<output>
				<port id="0" precision="FP32">
					<dim>1</dim>
					<dim>64</dim>
					<dim>1</dim>
					<dim>1</dim>
				</port>
			</output>
		</layer>
		<layer id="332" name="Mul_374" type="Multiply" version="opset1">
			<data auto_broadcast="numpy" />
			<input>
				<port id="0" precision="FP32">
					<dim>-1</dim>
					<dim>64</dim>
					<dim>92</dim>
					<dim>124</dim>
				</port>
				<port id="1" precision="FP32">
					<dim>1</dim>
					<dim>64</dim>
					<dim>1</dim>
					<dim>1</dim>
				</port>
			</input>
			<output>
				<port id="2" precision="FP32" names="onnx::Add_660">
					<dim>-1</dim>
					<dim>64</dim>
					<dim>92</dim>
					<dim>124</dim>
				</port>
			</output>
		</layer>
		<layer id="333" name="Constant_211698" type="Const" version="opset1">
			<data element_type="f32" shape="1, 64, 1, 1" offset="7746924" size="256" />
			<output>
				<port id="0" precision="FP32">
					<dim>1</dim>
					<dim>64</dim>
					<dim>1</dim>
					<dim>1</dim>
				</port>
			</output>
		</layer>
		<layer id="334" name="Add_375" type="Add" version="opset1">
			<data auto_broadcast="numpy" />
			<input>
				<port id="0" precision="FP32">
					<dim>-1</dim>
					<dim>64</dim>
					<dim>92</dim>
					<dim>124</dim>
				</port>
				<port id="1" precision="FP32">
					<dim>1</dim>
					<dim>64</dim>
					<dim>1</dim>
					<dim>1</dim>
				</port>
			</input>
			<output>
				<port id="2" precision="FP32" names="input.323">
					<dim>-1</dim>
					<dim>64</dim>
					<dim>92</dim>
					<dim>124</dim>
				</port>
			</output>
		</layer>
		<layer id="335" name="Relu_376" type="ReLU" version="opset1">
			<input>
				<port id="0" precision="FP32">
					<dim>-1</dim>
					<dim>64</dim>
					<dim>92</dim>
					<dim>124</dim>
				</port>
			</input>
			<output>
				<port id="1" precision="FP32" names="onnx::Conv_663">
					<dim>-1</dim>
					<dim>64</dim>
					<dim>92</dim>
					<dim>124</dim>
				</port>
			</output>
		</layer>
		<layer id="336" name="bbox_head.cls_convs.2.conv.weight" type="Const" version="opset1">
			<data element_type="f32" shape="64, 64, 3, 3" offset="7747180" size="147456" />
			<output>
				<port id="0" precision="FP32" names="bbox_head.cls_convs.2.conv.weight">
					<dim>64</dim>
					<dim>64</dim>
					<dim>3</dim>
					<dim>3</dim>
				</port>
			</output>
		</layer>
		<layer id="337" name="Conv_377" type="Convolution" version="opset1">
			<data strides="1, 1" dilations="1, 1" pads_begin="1, 1" pads_end="1, 1" auto_pad="explicit" />
			<input>
				<port id="0" precision="FP32">
					<dim>-1</dim>
					<dim>64</dim>
					<dim>92</dim>
					<dim>124</dim>
				</port>
				<port id="1" precision="FP32">
					<dim>64</dim>
					<dim>64</dim>
					<dim>3</dim>
					<dim>3</dim>
				</port>
			</input>
			<output>
				<port id="2" precision="FP32" names="input.327">
					<dim>-1</dim>
					<dim>64</dim>
					<dim>92</dim>
					<dim>124</dim>
				</port>
			</output>
		</layer>
		<layer id="338" name="Constant_378" type="Const" version="opset1">
			<data element_type="i64" shape="3" offset="7598676" size="24" />
			<output>
				<port id="0" precision="I64" names="onnx::Reshape_665">
					<dim>3</dim>
				</port>
			</output>
		</layer>
		<layer id="339" name="Reshape_379" type="Reshape" version="opset1">
			<data special_zero="true" />
			<input>
				<port id="0" precision="FP32">
					<dim>-1</dim>
					<dim>64</dim>
					<dim>92</dim>
					<dim>124</dim>
				</port>
				<port id="1" precision="I64">
					<dim>3</dim>
				</port>
			</input>
			<output>
				<port id="2" precision="FP32" names="onnx::InstanceNormalization_666">
					<dim>-1</dim>
					<dim>32</dim>
					<dim>22816</dim>
				</port>
			</output>
		</layer>
		<layer id="340" name="Constant_5142" type="Const" version="opset1">
			<data element_type="i64" shape="1" offset="7303472" size="8" />
			<output>
				<port id="0" precision="I64">
					<dim>1</dim>
				</port>
			</output>
		</layer>
		<layer id="341" name="MVN_5143" type="MVN" version="opset6">
			<data eps="9.9999997473787516e-06" normalize_variance="true" eps_mode="INSIDE_SQRT" />
			<input>
				<port id="0" precision="FP32">
					<dim>-1</dim>
					<dim>32</dim>
					<dim>22816</dim>
				</port>
				<port id="1" precision="I64">
					<dim>1</dim>
				</port>
			</input>
			<output>
				<port id="2" precision="FP32" names="onnx::Reshape_669">
					<dim>-1</dim>
					<dim>32</dim>
					<dim>22816</dim>
				</port>
			</output>
…
		<edge from-layer="1639" from-port="4" to-layer="1664" to-port="0" />
		<edge from-layer="1639" from-port="4" to-layer="1697" to-port="0" />
		<edge from-layer="1639" from-port="4" to-layer="1648" to-port="0" />
		<edge from-layer="1639" from-port="4" to-layer="1691" to-port="0" />
		<edge from-layer="1639" from-port="4" to-layer="1642" to-port="0" />
		<edge from-layer="1639" from-port="4" to-layer="1675" to-port="0" />
		<edge from-layer="1640" from-port="0" to-layer="1642" to-port="1" />
		<edge from-layer="1641" from-port="0" to-layer="1642" to-port="2" />
		<edge from-layer="1642" from-port="3" to-layer="1643" to-port="0" />
		<edge from-layer="1643" from-port="1" to-layer="1644" to-port="1" />
		<edge from-layer="1644" from-port="2" to-layer="1645" to-port="0" />
		<edge from-layer="1645" from-port="1" to-layer="1650" to-port="0" />
		<edge from-layer="1646" from-port="0" to-layer="1648" to-port="1" />
		<edge from-layer="1647" from-port="0" to-layer="1648" to-port="2" />
		<edge from-layer="1648" from-port="3" to-layer="1649" to-port="0" />
		<edge from-layer="1649" from-port="1" to-layer="1650" to-port="1" />
		<edge from-layer="1650" from-port="2" to-layer="1652" to-port="0" />
		<edge from-layer="1651" from-port="0" to-layer="1652" to-port="1" />
		<edge from-layer="1652" from-port="2" to-layer="1702" to-port="0" />
		<edge from-layer="1653" from-port="0" to-layer="1655" to-port="1" />
		<edge from-layer="1654" from-port="0" to-layer="1655" to-port="2" />
		<edge from-layer="1655" from-port="3" to-layer="1660" to-port="0" />
		<edge from-layer="1656" from-port="0" to-layer="1658" to-port="1" />
		<edge from-layer="1657" from-port="0" to-layer="1658" to-port="2" />
		<edge from-layer="1658" from-port="3" to-layer="1659" to-port="0" />
		<edge from-layer="1659" from-port="1" to-layer="1660" to-port="1" />
		<edge from-layer="1660" from-port="2" to-layer="1661" to-port="0" />
		<edge from-layer="1661" from-port="1" to-layer="1666" to-port="0" />
		<edge from-layer="1662" from-port="0" to-layer="1664" to-port="1" />
		<edge from-layer="1663" from-port="0" to-layer="1664" to-port="2" />
		<edge from-layer="1664" from-port="3" to-layer="1665" to-port="0" />
		<edge from-layer="1665" from-port="1" to-layer="1666" to-port="1" />
		<edge from-layer="1666" from-port="2" to-layer="1668" to-port="0" />
		<edge from-layer="1667" from-port="0" to-layer="1668" to-port="1" />
		<edge from-layer="1668" from-port="2" to-layer="1702" to-port="1" />
		<edge from-layer="1669" from-port="2" to-layer="1672" to-port="0" />
		<edge from-layer="1669" from-port="2" to-layer="1688" to-port="0" />
		<edge from-layer="1670" from-port="0" to-layer="1672" to-port="1" />
		<edge from-layer="1671" from-port="0" to-layer="1672" to-port="2" />
		<edge from-layer="1672" from-port="3" to-layer="1677" to-port="0" />
		<edge from-layer="1673" from-port="0" to-layer="1675" to-port="1" />
		<edge from-layer="1674" from-port="0" to-layer="1675" to-port="2" />
		<edge from-layer="1675" from-port="3" to-layer="1676" to-port="0" />
		<edge from-layer="1676" from-port="1" to-layer="1677" to-port="1" />
		<edge from-layer="1677" from-port="2" to-layer="1678" to-port="0" />
		<edge from-layer="1678" from-port="1" to-layer="1683" to-port="0" />
		<edge from-layer="1679" from-port="0" to-layer="1681" to-port="1" />
		<edge from-layer="1680" from-port="0" to-layer="1681" to-port="2" />
		<edge from-layer="1681" from-port="3" to-layer="1682" to-port="0" />
		<edge from-layer="1682" from-port="1" to-layer="1683" to-port="1" />
		<edge from-layer="1683" from-port="2" to-layer="1685" to-port="0" />
		<edge from-layer="1684" from-port="0" to-layer="1685" to-port="1" />
		<edge from-layer="1685" from-port="2" to-layer="1702" to-port="2" />
		<edge from-layer="1686" from-port="0" to-layer="1688" to-port="1" />
		<edge from-layer="1687" from-port="0" to-layer="1688" to-port="2" />
		<edge from-layer="1688" from-port="3" to-layer="1693" to-port="0" />
		<edge from-layer="1689" from-port="0" to-layer="1691" to-port="1" />
		<edge from-layer="1690" from-port="0" to-layer="1691" to-port="2" />
		<edge from-layer="1691" from-port="3" to-layer="1692" to-port="0" />
		<edge from-layer="1692" from-port="1" to-layer="1693" to-port="1" />
		<edge from-layer="1693" from-port="2" to-layer="1694" to-port="0" />
		<edge from-layer="1694" from-port="1" to-layer="1699" to-port="0" />
		<edge from-layer="1695" from-port="0" to-layer="1697" to-port="1" />
		<edge from-layer="1696" from-port="0" to-layer="1697" to-port="2" />
		<edge from-layer="1697" from-port="3" to-layer="1698" to-port="0" />
		<edge from-layer="1698" from-port="1" to-layer="1699" to-port="1" />
		<edge from-layer="1699" from-port="2" to-layer="1701" to-port="0" />
		<edge from-layer="1700" from-port="0" to-layer="1701" to-port="1" />
		<edge from-layer="1701" from-port="2" to-layer="1702" to-port="3" />
		<edge from-layer="1702" from-port="4" to-layer="1704" to-port="0" />
		<edge from-layer="1703" from-port="1" to-layer="1704" to-port="1" />
		<edge from-layer="1704" from-port="2" to-layer="1705" to-port="0" />
		<edge from-layer="1704" from-port="2" to-layer="1714" to-port="0" />
		<edge from-layer="1705" from-port="1" to-layer="2012" to-port="0" />
		<edge from-layer="1705" from-port="1" to-layer="2004" to-port="0" />
		<edge from-layer="1705" from-port="1" to-layer="1709" to-port="0" />
		<edge from-layer="1706" from-port="0" to-layer="1709" to-port="1" />
		<edge from-layer="1707" from-port="0" to-layer="1709" to-port="2" />
		<edge from-layer="1708" from-port="0" to-layer="1709" to-port="3" />
		<edge from-layer="1709" from-port="4" to-layer="1711" to-port="0" />
		<edge from-layer="1710" from-port="0" to-layer="1711" to-port="1" />
		<edge from-layer="1711" from-port="2" to-layer="1713" to-port="0" />
		<edge from-layer="1712" from-port="0" to-layer="1713" to-port="1" />
		<edge from-layer="1713" from-port="2" to-layer="1714" to-port="1" />
		<edge from-layer="1714" from-port="2" to-layer="2008" to-port="0" />
		<edge from-layer="1715" from-port="1" to-layer="1727" to-port="0" />
		<edge from-layer="1715" from-port="1" to-layer="1735" to-port="0" />
		<edge from-layer="1715" from-port="1" to-layer="1719" to-port="0" />
		<edge from-layer="1716" from-port="0" to-layer="1719" to-port="1" />
		<edge from-layer="1717" from-port="0" to-layer="1719" to-port="2" />
		<edge from-layer="1718" from-port="0" to-layer="1719" to-port="3" />
		<edge from-layer="1719" from-port="4" to-layer="1721" to-port="0" />
		<edge from-layer="1720" from-port="0" to-layer="1721" to-port="1" />
		<edge from-layer="1721" from-port="2" to-layer="1723" to-port="0" />
		<edge from-layer="1722" from-port="0" to-layer="1723" to-port="1" />
		<edge from-layer="1723" from-port="2" to-layer="1724" to-port="1" />
		<edge from-layer="1724" from-port="2" to-layer="1731" to-port="0" />
		<edge from-layer="1725" from-port="0" to-layer="1727" to-port="1" />
		<edge from-layer="1726" from-port="0" to-layer="1727" to-port="2" />
		<edge from-layer="1727" from-port="3" to-layer="1728" to-port="1" />
		<edge from-layer="1728" from-port="2" to-layer="1729" to-port="1" />
		<edge from-layer="1729" from-port="2" to-layer="1738" to-port="0" />
		<edge from-layer="1729" from-port="2" to-layer="1731" to-port="1" />
		<edge from-layer="1730" from-port="0" to-layer="1731" to-port="2" />
		<edge from-layer="1731" from-port="3" to-layer="1737" to-port="0" />
		<edge from-layer="1732" from-port="0" to-layer="1736" to-port="0" />
		<edge from-layer="1733" from-port="0" to-layer="1735" to-port="1" />
		<edge from-layer="1734" from-port="0" to-layer="1735" to-port="2" />
		<edge from-layer="1735" from-port="3" to-layer="1739" to-port="1" />
		<edge from-layer="1735" from-port="3" to-layer="1736" to-port="1" />
		<edge from-layer="1736" from-port="2" to-layer="1737" to-port="1" />
		<edge from-layer="1737" from-port="2" to-layer="1740" to-port="0" />
		<edge from-layer="1738" from-port="1" to-layer="1739" to-port="0" />
		<edge from-layer="1739" from-port="2" to-layer="1740" to-port="1" />
		<edge from-layer="1740" from-port="2" to-layer="1845" to-port="0" />
		<edge from-layer="1741" from-port="1" to-layer="1745" to-port="0" />
		<edge from-layer="1741" from-port="1" to-layer="1753" to-port="0" />
		<edge from-layer="1741" from-port="1" to-layer="1761" to-port="0" />
		<edge from-layer="1742" from-port="0" to-layer="1745" to-port="1" />
		<edge from-layer="1743" from-port="0" to-layer="1745" to-port="2" />
		<edge from-layer="1744" from-port="0" to-layer="1745" to-port="3" />
		<edge from-layer="1745" from-port="4" to-layer="1747" to-port="0" />
		<edge from-layer="1746" from-port="0" to-layer="1747" to-port="1" />
		<edge from-layer="1747" from-port="2" to-layer="1749" to-port="0" />
		<edge from-layer="1748" from-port="0" to-layer="1749" to-port="1" />
		<edge from-layer="1749" from-port="2" to-layer="1750" to-port="1" />
		<edge from-layer="1750" from-port="2" to-layer="1757" to-port="0" />
		<edge from-layer="1751" from-port="0" to-layer="1753" to-port="1" />
		<edge from-layer="1752" from-port="0" to-layer="1753" to-port="2" />
		<edge from-layer="1753" from-port="3" to-layer="1754" to-port="1" />
		<edge from-layer="1754" from-port="2" to-layer="1755" to-port="1" />
		<edge from-layer="1755" from-port="2" to-layer="1764" to-port="0" />
		<edge from-layer="1755" from-port="2" to-layer="1757" to-port="1" />
		<edge from-layer="1756" from-port="0" to-layer="1757" to-port="2" />
		<edge from-layer="1757" from-port="3" to-layer="1763" to-port="0" />
		<edge from-layer="1758" from-port="0" to-layer="1762" to-port="0" />
		<edge from-layer="1759" from-port="0" to-layer="1761" to-port="1" />
		<edge from-layer="1760" from-port="0" to-layer="1761" to-port="2" />
		<edge from-layer="1761" from-port="3" to-layer="1765" to-port="1" />
		<edge from-layer="1761" from-port="3" to-layer="1762" to-port="1" />
		<edge from-layer="1762" from-port="2" to-layer="1763" to-port="1" />
		<edge from-layer="1763" from-port="2" to-layer="1766" to-port="0" />
		<edge from-layer="1764" from-port="1" to-layer="1765" to-port="0" />
		<edge from-layer="1765" from-port="2" to-layer="1766" to-port="1" />
		<edge from-layer="1766" from-port="2" to-layer="1845" to-port="1" />
		<edge from-layer="1767" from-port="1" to-layer="1779" to-port="0" />
		<edge from-layer="1767" from-port="1" to-layer="1771" to-port="0" />
		<edge from-layer="1767" from-port="1" to-layer="1787" to-port="0" />
		<edge from-layer="1768" from-port="0" to-layer="1771" to-port="1" />
		<edge from-layer="1769" from-port="0" to-layer="1771" to-port="2" />
		<edge from-layer="1770" from-port="0" to-layer="1771" to-port="3" />
		<edge from-layer="1771" from-port="4" to-layer="1773" to-port="0" />
		<edge from-layer="1772" from-port="0" to-layer="1773" to-port="1" />
		<edge from-layer="1773" from-port="2" to-layer="1775" to-port="0" />
		<edge from-layer="1774" from-port="0" to-layer="1775" to-port="1" />
		<edge from-layer="1775" from-port="2" to-layer="1776" to-port="1" />
		<edge from-layer="1776" from-port="2" to-layer="1783" to-port="0" />
		<edge from-layer="1777" from-port="0" to-layer="1779" to-port="1" />
		<edge from-layer="1778" from-port="0" to-layer="1779" to-port="2" />
		<edge from-layer="1779" from-port="3" to-layer="1780" to-port="1" />
		<edge from-layer="1780" from-port="2" to-layer="1781" to-port="1" />
		<edge from-layer="1781" from-port="2" to-layer="1790" to-port="0" />
		<edge from-layer="1781" from-port="2" to-layer="1783" to-port="1" />
		<edge from-layer="1782" from-port="0" to-layer="1783" to-port="2" />
		<edge from-layer="1783" from-port="3" to-layer="1789" to-port="0" />
		<edge from-layer="1784" from-port="0" to-layer="1788" to-port="0" />
		<edge from-layer="1785" from-port="0" to-layer="1787" to-port="1" />
		<edge from-layer="1786" from-port="0" to-layer="1787" to-port="2" />
		<edge from-layer="1787" from-port="3" to-layer="1788" to-port="1" />
		<edge from-layer="1787" from-port="3" to-layer="1791" to-port="1" />
		<edge from-layer="1788" from-port="2" to-layer="1789" to-port="1" />
		<edge from-layer="1789" from-port="2" to-layer="1792" to-port="0" />
		<edge from-layer="1790" from-port="1" to-layer="1791" to-port="0" />
		<edge from-layer="1791" from-port="2" to-layer="1792" to-port="1" />
		<edge from-layer="1792" from-port="2" to-layer="1845" to-port="2" />
		<edge from-layer="1793" from-port="1" to-layer="1797" to-port="0" />
		<edge from-layer="1793" from-port="1" to-layer="1805" to-port="0" />
		<edge from-layer="1793" from-port="1" to-layer="1813" to-port="0" />
		<edge from-layer="1794" from-port="0" to-layer="1797" to-port="1" />
		<edge from-layer="1795" from-port="0" to-layer="1797" to-port="2" />
		<edge from-layer="1796" from-port="0" to-layer="1797" to-port="3" />
		<edge from-layer="1797" from-port="4" to-layer="1799" to-port="0" />
		<edge from-layer="1798" from-port="0" to-layer="1799" to-port="1" />
		<edge from-layer="1799" from-port="2" to-layer="1801" to-port="0" />
		<edge from-layer="1800" from-port="0" to-layer="1801" to-port="1" />
		<edge from-layer="1801" from-port="2" to-layer="1802" to-port="1" />
		<edge from-layer="1802" from-port="2" to-layer="1809" to-port="0" />
		<edge from-layer="1803" from-port="0" to-layer="1805" to-port="1" />
		<edge from-layer="1804" from-port="0" to-layer="1805" to-port="2" />
		<edge from-layer="1805" from-port="3" to-layer="1806" to-port="1" />
		<edge from-layer="1806" from-port="2" to-layer="1807" to-port="1" />
		<edge from-layer="1807" from-port="2" to-layer="1809" to-port="1" />
		<edge from-layer="1807" from-port="2" to-layer="1816" to-port="0" />
		<edge from-layer="1808" from-port="0" to-layer="1809" to-port="2" />
		<edge from-layer="1809" from-port="3" to-layer="1815" to-port="0" />
		<edge from-layer="1810" from-port="0" to-layer="1814" to-port="0" />
		<edge from-layer="1811" from-port="0" to-layer="1813" to-port="1" />
		<edge from-layer="1812" from-port="0" to-layer="1813" to-port="2" />
		<edge from-layer="1813" from-port="3" to-layer="1814" to-port="1" />
		<edge from-layer="1813" from-port="3" to-layer="1817" to-port="1" />
		<edge from-layer="1814" from-port="2" to-layer="1815" to-port="1" />
		<edge from-layer="1815" from-port="2" to-layer="1818" to-port="0" />
		<edge from-layer="1816" from-port="1" to-layer="1817" to-port="0" />
		<edge from-layer="1817" from-port="2" to-layer="1818" to-port="1" />
		<edge from-layer="1818" from-port="2" to-layer="1845" to-port="3" />
		<edge from-layer="1819" from-port="1" to-layer="1839" to-port="0" />
		<edge from-layer="1819" from-port="1" to-layer="1831" to-port="0" />
		<edge from-layer="1819" from-port="1" to-layer="1823" to-port="0" />
		<edge from-layer="1820" from-port="0" to-layer="1823" to-port="1" />
		<edge from-layer="1821" from-port="0" to-layer="1823" to-port="2" />
		<edge from-layer="1822" from-port="0" to-layer="1823" to-port="3" />
		<edge from-layer="1823" from-port="4" to-layer="1825" to-port="0" />
		<edge from-layer="1824" from-port="0" to-layer="1825" to-port="1" />
		<edge from-layer="1825" from-port="2" to-layer="1827" to-port="0" />
		<edge from-layer="1826" from-port="0" to-layer="1827" to-port="1" />
		<edge from-layer="1827" from-port="2" to-layer="1828" to-port="1" />
		<edge from-layer="1828" from-port="2" to-layer="1835" to-port="0" />
		<edge from-layer="1829" from-port="0" to-layer="1831" to-port="1" />
		<edge from-layer="1830" from-port="0" to-layer="1831" to-port="2" />
		<edge from-layer="1831" from-port="3" to-layer="1832" to-port="1" />
		<edge from-layer="1832" from-port="2" to-layer="1833" to-port="1" />
		<edge from-layer="1833" from-port="2" to-layer="1835" to-port="1" />
		<edge from-layer="1833" from-port="2" to-layer="1842" to-port="0" />
		<edge from-layer="1834" from-port="0" to-layer="1835" to-port="2" />
		<edge from-layer="1835" from-port="3" to-layer="1841" to-port="0" />
		<edge from-layer="1836" from-port="0" to-layer="1840" to-port="0" />
		<edge from-layer="1837" from-port="0" to-layer="1839" to-port="1" />
		<edge from-layer="1838" from-port="0" to-layer="1839" to-port="2" />
		<edge from-layer="1839" from-port="3" to-layer="1840" to-port="1" />
		<edge from-layer="1839" from-port="3" to-layer="1843" to-port="1" />
		<edge from-layer="1840" from-port="2" to-layer="1841" to-port="1" />
		<edge from-layer="1841" from-port="2" to-layer="1844" to-port="0" />
		<edge from-layer="1842" from-port="1" to-layer="1843" to-port="0" />
		<edge from-layer="1843" from-port="2" to-layer="1844" to-port="1" />
		<edge from-layer="1844" from-port="2" to-layer="1845" to-port="4" />
		<edge from-layer="1845" from-port="5" to-layer="1977" to-port="0" />
		<edge from-layer="1846" from-port="1" to-layer="1850" to-port="0" />
		<edge from-layer="1846" from-port="1" to-layer="1866" to-port="0" />
		<edge from-layer="1846" from-port="1" to-layer="1858" to-port="0" />
		<edge from-layer="1847" from-port="0" to-layer="1850" to-port="1" />
		<edge from-layer="1848" from-port="0" to-layer="1850" to-port="2" />
		<edge from-layer="1849" from-port="0" to-layer="1850" to-port="3" />
		<edge from-layer="1850" from-port="4" to-layer="1852" to-port="0" />
		<edge from-layer="1851" from-port="0" to-layer="1852" to-port="1" />
		<edge from-layer="1852" from-port="2" to-layer="1854" to-port="0" />
		<edge from-layer="1853" from-port="0" to-layer="1854" to-port="1" />
		<edge from-layer="1854" from-port="2" to-layer="1855" to-port="1" />
		<edge from-layer="1855" from-port="2" to-layer="1862" to-port="0" />
		<edge from-layer="1856" from-port="0" to-layer="1858" to-port="1" />
		<edge from-layer="1857" from-port="0" to-layer="1858" to-port="2" />
		<edge from-layer="1858" from-port="3" to-layer="1859" to-port="1" />
		<edge from-layer="1859" from-port="2" to-layer="1860" to-port="1" />
		<edge from-layer="1860" from-port="2" to-layer="1862" to-port="1" />
		<edge from-layer="1860" from-port="2" to-layer="1869" to-port="0" />
		<edge from-layer="1861" from-port="0" to-layer="1862" to-port="2" />
		<edge from-layer="1862" from-port="3" to-layer="1868" to-port="0" />
		<edge from-layer="1863" from-port="0" to-layer="1867" to-port="0" />
		<edge from-layer="1864" from-port="0" to-layer="1866" to-port="1" />
		<edge from-layer="1865" from-port="0" to-layer="1866" to-port="2" />
		<edge from-layer="1866" from-port="3" to-layer="1867" to-port="1" />
		<edge from-layer="1866" from-port="3" to-layer="1870" to-port="1" />
		<edge from-layer="1867" from-port="2" to-layer="1868" to-port="1" />
		<edge from-layer="1868" from-port="2" to-layer="1871" to-port="0" />
		<edge from-layer="1869" from-port="1" to-layer="1870" to-port="0" />
		<edge from-layer="1870" from-port="2" to-layer="1871" to-port="1" />
		<edge from-layer="1871" from-port="2" to-layer="1976" to-port="0" />
		<edge from-layer="1872" from-port="1" to-layer="1876" to-port="0" />
		<edge from-layer="1872" from-port="1" to-layer="1892" to-port="0" />
		<edge from-layer="1872" from-port="1" to-layer="1884" to-port="0" />
		<edge from-layer="1873" from-port="0" to-layer="1876" to-port="1" />
		<edge from-layer="1874" from-port="0" to-layer="1876" to-port="2" />
		<edge from-layer="1875" from-port="0" to-layer="1876" to-port="3" />
		<edge from-layer="1876" from-port="4" to-layer="1878" to-port="0" />
		<edge from-layer="1877" from-port="0" to-layer="1878" to-port="1" />
		<edge from-layer="1878" from-port="2" to-layer="1880" to-port="0" />
		<edge from-layer="1879" from-port="0" to-layer="1880" to-port="1" />
		<edge from-layer="1880" from-port="2" to-layer="1881" to-port="1" />
		<edge from-layer="1881" from-port="2" to-layer="1888" to-port="0" />
		<edge from-layer="1882" from-port="0" to-layer="1884" to-port="1" />
		<edge from-layer="1883" from-port="0" to-layer="1884" to-port="2" />
		<edge from-layer="1884" from-port="3" to-layer="1885" to-port="1" />
		<edge from-layer="1885" from-port="2" to-layer="1886" to-port="1" />
		<edge from-layer="1886" from-port="2" to-layer="1895" to-port="0" />
		<edge from-layer="1886" from-port="2" to-layer="1888" to-port="1" />
		<edge from-layer="1887" from-port="0" to-layer="1888" to-port="2" />
		<edge from-layer="1888" from-port="3" to-layer="1894" to-port="0" />
		<edge from-layer="1889" from-port="0" to-layer="1893" to-port="0" />
		<edge from-layer="1890" from-port="0" to-layer="1892" to-port="1" />
		<edge from-layer="1891" from-port="0" to-layer="1892" to-port="2" />
		<edge from-layer="1892" from-port="3" to-layer="1896" to-port="1" />
		<edge from-layer="1892" from-port="3" to-layer="1893" to-port="1" />
		<edge from-layer="1893" from-port="2" to-layer="1894" to-port="1" />
		<edge from-layer="1894" from-port="2" to-layer="1897" to-port="0" />
		<edge from-layer="1895" from-port="1" to-layer="1896" to-port="0" />
		<edge from-layer="1896" from-port="2" to-layer="1897" to-port="1" />
		<edge from-layer="1897" from-port="2" to-layer="1976" to-port="1" />
		<edge from-layer="1898" from-port="1" to-layer="1918" to-port="0" />
		<edge from-layer="1898" from-port="1" to-layer="1902" to-port="0" />
		<edge from-layer="1898" from-port="1" to-layer="1910" to-port="0" />
		<edge from-layer="1899" from-port="0" to-layer="1902" to-port="1" />
		<edge from-layer="1900" from-port="0" to-layer="1902" to-port="2" />
		<edge from-layer="1901" from-port="0" to-layer="1902" to-port="3" />
		<edge from-layer="1902" from-port="4" to-layer="1904" to-port="0" />
		<edge from-layer="1903" from-port="0" to-layer="1904" to-port="1" />
		<edge from-layer="1904" from-port="2" to-layer="1906" to-port="0" />
		<edge from-layer="1905" from-port="0" to-layer="1906" to-port="1" />
		<edge from-layer="1906" from-port="2" to-layer="1907" to-port="1" />
		<edge from-layer="1907" from-port="2" to-layer="1914" to-port="0" />
		<edge from-layer="1908" from-port="0" to-layer="1910" to-port="1" />
		<edge from-layer="1909" from-port="0" to-layer="1910" to-port="2" />
		<edge from-layer="1910" from-port="3" to-layer="1911" to-port="1" />
		<edge from-layer="1911" from-port="2" to-layer="1912" to-port="1" />
		<edge from-layer="1912" from-port="2" to-layer="1921" to-port="0" />
		<edge from-layer="1912" from-port="2" to-layer="1914" to-port="1" />
		<edge from-layer="1913" from-port="0" to-layer="1914" to-port="2" />
		<edge from-layer="1914" from-port="3" to-layer="1920" to-port="0" />
		<edge from-layer="1915" from-port="0" to-layer="1919" to-port="0" />
		<edge from-layer="1916" from-port="0" to-layer="1918" to-port="1" />
		<edge from-layer="1917" from-port="0" to-layer="1918" to-port="2" />
		<edge from-layer="1918" from-port="3" to-layer="1919" to-port="1" />
		<edge from-layer="1918" from-port="3" to-layer="1922" to-port="1" />
		<edge from-layer="1919" from-port="2" to-layer="1920" to-port="1" />
		<edge from-layer="1920" from-port="2" to-layer="1923" to-port="0" />
		<edge from-layer="1921" from-port="1" to-layer="1922" to-port="0" />
		<edge from-layer="1922" from-port="2" to-layer="1923" to-port="1" />
		<edge from-layer="1923" from-port="2" to-layer="1976" to-port="2" />
		<edge from-layer="1924" from-port="1" to-layer="1944" to-port="0" />
		<edge from-layer="1924" from-port="1" to-layer="1936" to-port="0" />
		<edge from-layer="1924" from-port="1" to-layer="1928" to-port="0" />
		<edge from-layer="1925" from-port="0" to-layer="1928" to-port="1" />
		<edge from-layer="1926" from-port="0" to-layer="1928" to-port="2" />
		<edge from-layer="1927" from-port="0" to-layer="1928" to-port="3" />
		<edge from-layer="1928" from-port="4" to-layer="1930" to-port="0" />
		<edge from-layer="1929" from-port="0" to-layer="1930" to-port="1" />
		<edge from-layer="1930" from-port="2" to-layer="1932" to-port="0" />
		<edge from-layer="1931" from-port="0" to-layer="1932" to-port="1" />
		<edge from-layer="1932" from-port="2" to-layer="1933" to-port="1" />
		<edge from-layer="1933" from-port="2" to-layer="1940" to-port="0" />
		<edge from-layer="1934" from-port="0" to-layer="1936" to-port="1" />
		<edge from-layer="1935" from-port="0" to-layer="1936" to-port="2" />
		<edge from-layer="1936" from-port="3" to-layer="1937" to-port="1" />
		<edge from-layer="1937" from-port="2" to-layer="1938" to-port="1" />
		<edge from-layer="1938" from-port="2" to-layer="1940" to-port="1" />
		<edge from-layer="1938" from-port="2" to-layer="1947" to-port="0" />
		<edge from-layer="1939" from-port="0" to-layer="1940" to-port="2" />
		<edge from-layer="1940" from-port="3" to-layer="1946" to-port="0" />
		<edge from-layer="1941" from-port="0" to-layer="1945" to-port="0" />
		<edge from-layer="1942" from-port="0" to-layer="1944" to-port="1" />
		<edge from-layer="1943" from-port="0" to-layer="1944" to-port="2" />
		<edge from-layer="1944" from-port="3" to-layer="1945" to-port="1" />
		<edge from-layer="1944" from-port="3" to-layer="1948" to-port="1" />
		<edge from-layer="1945" from-port="2" to-layer="1946" to-port="1" />
		<edge from-layer="1946" from-port="2" to-layer="1949" to-port="0" />
		<edge from-layer="1947" from-port="1" to-layer="1948" to-port="0" />
		<edge from-layer="1948" from-port="2" to-layer="1949" to-port="1" />
		<edge from-layer="1949" from-port="2" to-layer="1976" to-port="3" />
		<edge from-layer="1950" from-port="1" to-layer="1954" to-port="0" />
		<edge from-layer="1950" from-port="1" to-layer="1970" to-port="0" />
		<edge from-layer="1950" from-port="1" to-layer="1962" to-port="0" />
		<edge from-layer="1951" from-port="0" to-layer="1954" to-port="1" />
		<edge from-layer="1952" from-port="0" to-layer="1954" to-port="2" />
		<edge from-layer="1953" from-port="0" to-layer="1954" to-port="3" />
		<edge from-layer="1954" from-port="4" to-layer="1956" to-port="0" />
		<edge from-layer="1955" from-port="0" to-layer="1956" to-port="1" />
		<edge from-layer="1956" from-port="2" to-layer="1958" to-port="0" />
		<edge from-layer="1957" from-port="0" to-layer="1958" to-port="1" />
		<edge from-layer="1958" from-port="2" to-layer="1959" to-port="1" />
		<edge from-layer="1959" from-port="2" to-layer="1966" to-port="0" />
		<edge from-layer="1960" from-port="0" to-layer="1962" to-port="1" />
		<edge from-layer="1961" from-port="0" to-layer="1962" to-port="2" />
		<edge from-layer="1962" from-port="3" to-layer="1963" to-port="1" />
		<edge from-layer="1963" from-port="2" to-layer="1964" to-port="1" />
		<edge from-layer="1964" from-port="2" to-layer="1966" to-port="1" />
		<edge from-layer="1964" from-port="2" to-layer="1973" to-port="0" />
		<edge from-layer="1965" from-port="0" to-layer="1966" to-port="2" />
		<edge from-layer="1966" from-port="3" to-layer="1972" to-port="0" />
		<edge from-layer="1967" from-port="0" to-layer="1971" to-port="0" />
		<edge from-layer="1968" from-port="0" to-layer="1970" to-port="1" />
		<edge from-layer="1969" from-port="0" to-layer="1970" to-port="2" />
		<edge from-layer="1970" from-port="3" to-layer="1974" to-port="1" />
		<edge from-layer="1970" from-port="3" to-layer="1971" to-port="1" />
		<edge from-layer="1971" from-port="2" to-layer="1972" to-port="1" />
		<edge from-layer="1972" from-port="2" to-layer="1975" to-port="0" />
		<edge from-layer="1973" from-port="1" to-layer="1974" to-port="0" />
		<edge from-layer="1974" from-port="2" to-layer="1975" to-port="1" />
		<edge from-layer="1975" from-port="2" to-layer="1976" to-port="4" />
		<edge from-layer="1976" from-port="5" to-layer="1977" to-port="1" />
		<edge from-layer="1977" from-port="2" to-layer="2026" to-port="0" />
		<edge from-layer="1977" from-port="2" to-layer="1979" to-port="0" />
		<edge from-layer="1977" from-port="2" to-layer="1994" to-port="0" />
		<edge from-layer="1978" from-port="0" to-layer="1979" to-port="1" />
		<edge from-layer="1979" from-port="2" to-layer="1992" to-port="0" />
		<edge from-layer="1979" from-port="2" to-layer="1981" to-port="0" />
		<edge from-layer="1980" from-port="0" to-layer="1985" to-port="0" />
		<edge from-layer="1981" from-port="1" to-layer="1984" to-port="0" />
		<edge from-layer="1982" from-port="0" to-layer="1984" to-port="1" />
		<edge from-layer="1983" from-port="0" to-layer="1984" to-port="2" />
		<edge from-layer="1984" from-port="3" to-layer="1985" to-port="1" />
		<edge from-layer="1984" from-port="3" to-layer="1987" to-port="2" />
		<edge from-layer="1985" from-port="2" to-layer="1987" to-port="0" />
		<edge from-layer="1986" from-port="0" to-layer="1987" to-port="1" />
		<edge from-layer="1987" from-port="3" to-layer="1989" to-port="0" />
		<edge from-layer="1988" from-port="0" to-layer="1989" to-port="1" />
		<edge from-layer="1989" from-port="2" to-layer="1991" to-port="0" />
		<edge from-layer="1990" from-port="0" to-layer="1991" to-port="1" />
		<edge from-layer="1991" from-port="2" to-layer="1992" to-port="1" />
		<edge from-layer="1992" from-port="3" to-layer="2031" to-port="0" />
		<edge from-layer="1992" from-port="3" to-layer="2006" to-port="0" />
		<edge from-layer="1993" from-port="0" to-layer="1999" to-port="0" />
		<edge from-layer="1994" from-port="1" to-layer="2037" to-port="0" />
		<edge from-layer="1994" from-port="1" to-layer="2064" to-port="0" />
		<edge from-layer="1994" from-port="1" to-layer="2029" to-port="0" />
		<edge from-layer="1994" from-port="1" to-layer="2021" to-port="0" />
		<edge from-layer="1994" from-port="1" to-layer="2142" to-port="0" />
		<edge from-layer="1994" from-port="1" to-layer="1997" to-port="0" />
		<edge from-layer="1995" from-port="0" to-layer="1997" to-port="1" />
		<edge from-layer="1996" from-port="0" to-layer="2064" to-port="2" />
		<edge from-layer="1996" from-port="0" to-layer="2142" to-port="2" />
		<edge from-layer="1996" from-port="0" to-layer="1997" to-port="2" />
		<edge from-layer="1997" from-port="3" to-layer="2052" to-port="1" />
		<edge from-layer="1997" from-port="3" to-layer="2189" to-port="1" />
		<edge from-layer="1997" from-port="3" to-layer="1999" to-port="1" />
		<edge from-layer="1998" from-port="0" to-layer="1999" to-port="2" />
		<edge from-layer="1999" from-port="3" to-layer="2001" to-port="0" />
		<edge from-layer="2000" from-port="0" to-layer="2001" to-port="1" />
		<edge from-layer="2001" from-port="2" to-layer="2005" to-port="0" />
		<edge from-layer="2001" from-port="2" to-layer="2030" to-port="0" />
		<edge from-layer="2002" from-port="0" to-layer="2004" to-port="1" />
		<edge from-layer="2003" from-port="0" to-layer="2004" to-port="2" />
		<edge from-layer="2004" from-port="3" to-layer="2005" to-port="1" />
		<edge from-layer="2005" from-port="2" to-layer="2006" to-port="1" />
		<edge from-layer="2006" from-port="2" to-layer="2015" to-port="0" />
		<edge from-layer="2006" from-port="2" to-layer="2008" to-port="1" />
		<edge from-layer="2007" from-port="0" to-layer="2008" to-port="2" />
		<edge from-layer="2008" from-port="3" to-layer="2014" to-port="0" />
		<edge from-layer="2009" from-port="0" to-layer="2013" to-port="0" />
		<edge from-layer="2010" from-port="0" to-layer="2012" to-port="1" />
		<edge from-layer="2011" from-port="0" to-layer="2012" to-port="2" />
		<edge from-layer="2012" from-port="3" to-layer="2016" to-port="1" />
		<edge from-layer="2012" from-port="3" to-layer="2013" to-port="1" />
		<edge from-layer="2013" from-port="2" to-layer="2014" to-port="1" />
		<edge from-layer="2014" from-port="2" to-layer="2017" to-port="0" />
		<edge from-layer="2015" from-port="1" to-layer="2016" to-port="0" />
		<edge from-layer="2016" from-port="2" to-layer="2017" to-port="1" />
		<edge from-layer="2017" from-port="2" to-layer="2048" to-port="0" />
		<edge from-layer="2017" from-port="2" to-layer="2084" to-port="0" />
		<edge from-layer="2017" from-port="2" to-layer="2075" to-port="0" />
		<edge from-layer="2018" from-port="0" to-layer="2021" to-port="1" />
		<edge from-layer="2019" from-port="0" to-layer="2021" to-port="2" />
		<edge from-layer="2020" from-port="0" to-layer="2021" to-port="3" />
		<edge from-layer="2021" from-port="4" to-layer="2023" to-port="0" />
		<edge from-layer="2022" from-port="0" to-layer="2023" to-port="1" />
		<edge from-layer="2023" from-port="2" to-layer="2025" to-port="0" />
		<edge from-layer="2024" from-port="0" to-layer="2025" to-port="1" />
		<edge from-layer="2025" from-port="2" to-layer="2026" to-port="1" />
		<edge from-layer="2026" from-port="2" to-layer="2033" to-port="0" />
		<edge from-layer="2027" from-port="0" to-layer="2029" to-port="1" />
		<edge from-layer="2028" from-port="0" to-layer="2029" to-port="2" />
		<edge from-layer="2029" from-port="3" to-layer="2030" to-port="1" />
		<edge from-layer="2030" from-port="2" to-layer="2031" to-port="1" />
		<edge from-layer="2031" from-port="2" to-layer="2033" to-port="1" />
		<edge from-layer="2031" from-port="2" to-layer="2040" to-port="0" />
		<edge from-layer="2032" from-port="0" to-layer="2033" to-port="2" />
		<edge from-layer="2033" from-port="3" to-layer="2039" to-port="0" />
		<edge from-layer="2034" from-port="0" to-layer="2038" to-port="0" />
		<edge from-layer="2035" from-port="0" to-layer="2037" to-port="1" />
		<edge from-layer="2036" from-port="0" to-layer="2037" to-port="2" />
		<edge from-layer="2037" from-port="3" to-layer="2041" to-port="1" />
		<edge from-layer="2037" from-port="3" to-layer="2038" to-port="1" />
		<edge from-layer="2038" from-port="2" to-layer="2039" to-port="1" />
		<edge from-layer="2039" from-port="2" to-layer="2042" to-port="0" />
		<edge from-layer="2040" from-port="1" to-layer="2041" to-port="0" />
		<edge from-layer="2041" from-port="2" to-layer="2042" to-port="1" />
		<edge from-layer="2042" from-port="2" to-layer="2105" to-port="0" />
		<edge from-layer="2042" from-port="2" to-layer="2044" to-port="0" />
		<edge from-layer="2043" from-port="0" to-layer="2044" to-port="1" />
		<edge from-layer="2044" from-port="2" to-layer="2116" to-port="0" />
		<edge from-layer="2044" from-port="2" to-layer="2048" to-port="1" />
		<edge from-layer="2045" from-port="0" to-layer="2048" to-port="2" />
		<edge from-layer="2046" from-port="0" to-layer="2048" to-port="3" />
		<edge from-layer="2047" from-port="0" to-layer="2048" to-port="4" />
		<edge from-layer="2048" from-port="5" to-layer="2058" to-port="0" />
		<edge from-layer="2048" from-port="5" to-layer="2051" to-port="0" />
		<edge from-layer="2048" from-port="5" to-layer="2087" to-port="0" />
		<edge from-layer="2049" from-port="0" to-layer="2051" to-port="1" />
		<edge from-layer="2050" from-port="0" to-layer="2051" to-port="2" />
		<edge from-layer="2051" from-port="3" to-layer="2091" to-port="0" />
		<edge from-layer="2051" from-port="3" to-layer="2126" to-port="0" />
		<edge from-layer="2051" from-port="3" to-layer="2072" to-port="0" />
		<edge from-layer="2051" from-port="3" to-layer="2055" to-port="0" />
		<edge from-layer="2052" from-port="3" to-layer="2071" to-port="0" />
		<edge from-layer="2052" from-port="3" to-layer="2054" to-port="0" />
		<edge from-layer="2053" from-port="0" to-layer="2054" to-port="1" />
		<edge from-layer="2054" from-port="2" to-layer="2055" to-port="1" />
		<edge from-layer="2055" from-port="2" to-layer="2068" to-port="0" />
		<edge from-layer="2056" from-port="0" to-layer="2058" to-port="1" />
		<edge from-layer="2057" from-port="0" to-layer="2058" to-port="2" />
		<edge from-layer="2058" from-port="3" to-layer="2060" to-port="0" />
		<edge from-layer="2058" from-port="3" to-layer="2120" to-port="0" />
		<edge from-layer="2059" from-port="0" to-layer="2060" to-port="1" />
		<edge from-layer="2060" from-port="2" to-layer="2062" to-port="0" />
		<edge from-layer="2061" from-port="0" to-layer="2062" to-port="1" />
		<edge from-layer="2062" from-port="2" to-layer="2066" to-port="0" />
		<edge from-layer="2063" from-port="0" to-layer="2064" to-port="1" />
		<edge from-layer="2064" from-port="3" to-layer="2065" to-port="0" />
		<edge from-layer="2065" from-port="2" to-layer="2066" to-port="1" />
		<edge from-layer="2066" from-port="2" to-layer="2068" to-port="1" />
		<edge from-layer="2067" from-port="0" to-layer="2068" to-port="2" />
		<edge from-layer="2068" from-port="3" to-layer="2153" to-port="0" />
		<edge from-layer="2069" from-port="0" to-layer="2152" to-port="0" />
		<edge from-layer="2070" from-port="0" to-layer="2071" to-port="1" />
		<edge from-layer="2071" from-port="2" to-layer="2072" to-port="1" />
		<edge from-layer="2072" from-port="2" to-layer="2074" to-port="0" />
		<edge from-layer="2073" from-port="0" to-layer="2074" to-port="1" />
		<edge from-layer="2074" from-port="2" to-layer="2146" to-port="0" />
		<edge from-layer="2075" from-port="1" to-layer="2090" to-port="0" />
		<edge from-layer="2075" from-port="1" to-layer="2098" to-port="0" />
		<edge from-layer="2075" from-port="1" to-layer="2079" to-port="0" />
		<edge from-layer="2076" from-port="0" to-layer="2079" to-port="1" />
		<edge from-layer="2077" from-port="0" to-layer="2079" to-port="2" />
		<edge from-layer="2078" from-port="0" to-layer="2079" to-port="3" />
		<edge from-layer="2079" from-port="4" to-layer="2081" to-port="0" />
		<edge from-layer="2080" from-port="0" to-layer="2081" to-port="1" />
		<edge from-layer="2081" from-port="2" to-layer="2083" to-port="0" />
		<edge from-layer="2082" from-port="0" to-layer="2083" to-port="1" />
		<edge from-layer="2083" from-port="2" to-layer="2084" to-port="1" />
		<edge from-layer="2084" from-port="2" to-layer="2094" to-port="0" />
		<edge from-layer="2085" from-port="0" to-layer="2087" to-port="1" />
		<edge from-layer="2086" from-port="0" to-layer="2087" to-port="2" />
		<edge from-layer="2087" from-port="3" to-layer="2121" to-port="0" />
		<edge from-layer="2087" from-port="3" to-layer="2092" to-port="0" />
		<edge from-layer="2088" from-port="0" to-layer="2090" to-port="1" />
		<edge from-layer="2089" from-port="0" to-layer="2090" to-port="2" />
		<edge from-layer="2090" from-port="3" to-layer="2091" to-port="1" />
		<edge from-layer="2091" from-port="2" to-layer="2092" to-port="1" />
		<edge from-layer="2092" from-port="2" to-layer="2101" to-port="0" />
		<edge from-layer="2092" from-port="2" to-layer="2094" to-port="1" />
		<edge from-layer="2093" from-port="0" to-layer="2094" to-port="2" />
		<edge from-layer="2094" from-port="3" to-layer="2100" to-port="0" />
		<edge from-layer="2095" from-port="0" to-layer="2099" to-port="0" />
		<edge from-layer="2096" from-port="0" to-layer="2098" to-port="1" />
		<edge from-layer="2097" from-port="0" to-layer="2098" to-port="2" />
		<edge from-layer="2098" from-port="3" to-layer="2102" to-port="1" />
		<edge from-layer="2098" from-port="3" to-layer="2099" to-port="1" />
		<edge from-layer="2099" from-port="2" to-layer="2100" to-port="1" />
		<edge from-layer="2100" from-port="2" to-layer="2103" to-port="0" />
		<edge from-layer="2101" from-port="1" to-layer="2102" to-port="0" />
		<edge from-layer="2102" from-port="2" to-layer="2103" to-port="1" />
		<edge from-layer="2103" from-port="2" to-layer="2136" to-port="0" />
		<edge from-layer="2104" from-port="0" to-layer="2105" to-port="1" />
		<edge from-layer="2105" from-port="2" to-layer="2115" to-port="0" />
		<edge from-layer="2105" from-port="2" to-layer="2106" to-port="0" />
		<edge from-layer="2106" from-port="1" to-layer="2110" to-port="0" />
		<edge from-layer="2107" from-port="0" to-layer="2110" to-port="1" />
		<edge from-layer="2108" from-port="0" to-layer="2110" to-port="2" />
		<edge from-layer="2109" from-port="0" to-layer="2110" to-port="3" />
		<edge from-layer="2110" from-port="4" to-layer="2112" to-port="0" />
		<edge from-layer="2111" from-port="0" to-layer="2112" to-port="1" />
		<edge from-layer="2112" from-port="2" to-layer="2114" to-port="0" />
		<edge from-layer="2113" from-port="0" to-layer="2114" to-port="1" />
		<edge from-layer="2114" from-port="2" to-layer="2115" to-port="1" />
		<edge from-layer="2115" from-port="2" to-layer="2129" to-port="0" />
		<edge from-layer="2116" from-port="1" to-layer="2124" to-port="0" />
		<edge from-layer="2116" from-port="1" to-layer="2119" to-port="0" />
		<edge from-layer="2117" from-port="0" to-layer="2119" to-port="1" />
		<edge from-layer="2118" from-port="0" to-layer="2119" to-port="2" />
		<edge from-layer="2119" from-port="3" to-layer="2120" to-port="1" />
		<edge from-layer="2119" from-port="3" to-layer="2125" to-port="0" />
		<edge from-layer="2120" from-port="2" to-layer="2121" to-port="1" />
		<edge from-layer="2121" from-port="2" to-layer="2127" to-port="0" />
		<edge from-layer="2122" from-port="0" to-layer="2124" to-port="1" />
		<edge from-layer="2123" from-port="0" to-layer="2124" to-port="2" />
		<edge from-layer="2124" from-port="3" to-layer="2125" to-port="1" />
		<edge from-layer="2125" from-port="2" to-layer="2126" to-port="1" />
		<edge from-layer="2126" from-port="2" to-layer="2127" to-port="1" />
		<edge from-layer="2127" from-port="2" to-layer="2129" to-port="1" />
		<edge from-layer="2127" from-port="2" to-layer="2132" to-port="0" />
		<edge from-layer="2128" from-port="0" to-layer="2129" to-port="2" />
		<edge from-layer="2129" from-port="3" to-layer="2131" to-port="0" />
		<edge from-layer="2130" from-port="0" to-layer="2131" to-port="1" />
		<edge from-layer="2131" from-port="2" to-layer="2133" to-port="0" />
		<edge from-layer="2132" from-port="1" to-layer="2133" to-port="1" />
		<edge from-layer="2133" from-port="2" to-layer="2135" to-port="0" />
		<edge from-layer="2134" from-port="0" to-layer="2135" to-port="1" />
		<edge from-layer="2135" from-port="2" to-layer="2136" to-port="1" />
		<edge from-layer="2136" from-port="2" to-layer="2138" to-port="0" />
		<edge from-layer="2137" from-port="0" to-layer="2138" to-port="1" />
		<edge from-layer="2138" from-port="2" to-layer="2140" to-port="0" />
		<edge from-layer="2139" from-port="0" to-layer="2140" to-port="1" />
		<edge from-layer="2140" from-port="2" to-layer="2144" to-port="0" />
		<edge from-layer="2141" from-port="0" to-layer="2142" to-port="1" />
		<edge from-layer="2142" from-port="3" to-layer="2143" to-port="0" />
		<edge from-layer="2143" from-port="3" to-layer="2144" to-port="1" />
		<edge from-layer="2144" from-port="2" to-layer="2146" to-port="1" />
		<edge from-layer="2145" from-port="0" to-layer="2146" to-port="2" />
		<edge from-layer="2146" from-port="3" to-layer="2147" to-port="0" />
		<edge from-layer="2146" from-port="3" to-layer="2170" to-port="0" />
		<edge from-layer="2147" from-port="1" to-layer="2166" to-port="0" />
		<edge from-layer="2147" from-port="1" to-layer="2150" to-port="0" />
		<edge from-layer="2148" from-port="0" to-layer="2150" to-port="1" />
		<edge from-layer="2149" from-port="0" to-layer="2150" to-port="2" />
		<edge from-layer="2149" from-port="0" to-layer="2166" to-port="2" />
		<edge from-layer="2150" from-port="3" to-layer="2151" to-port="0" />
		<edge from-layer="2151" from-port="2" to-layer="2152" to-port="1" />
		<edge from-layer="2152" from-port="2" to-layer="2153" to-port="1" />
		<edge from-layer="2153" from-port="2" to-layer="2154" to-port="0" />
		<edge from-layer="2153" from-port="2" to-layer="2163" to-port="0" />
		<edge from-layer="2154" from-port="1" to-layer="2194" to-port="0" />
		<edge from-layer="2154" from-port="1" to-layer="2158" to-port="0" />
		<edge from-layer="2155" from-port="0" to-layer="2158" to-port="1" />
		<edge from-layer="2156" from-port="0" to-layer="2158" to-port="2" />
		<edge from-layer="2157" from-port="0" to-layer="2158" to-port="3" />
		<edge from-layer="2158" from-port="4" to-layer="2160" to-port="0" />
		<edge from-layer="2159" from-port="0" to-layer="2160" to-port="1" />
		<edge from-layer="2160" from-port="2" to-layer="2162" to-port="0" />
		<edge from-layer="2161" from-port="0" to-layer="2162" to-port="1" />
		<edge from-layer="2162" from-port="2" to-layer="2163" to-port="1" />
		<edge from-layer="2163" from-port="2" to-layer="2198" to-port="0" />
		<edge from-layer="2164" from-port="0" to-layer="2169" to-port="0" />
		<edge from-layer="2165" from-port="0" to-layer="2166" to-port="1" />
		<edge from-layer="2166" from-port="3" to-layer="2168" to-port="0" />
		<edge from-layer="2167" from-port="0" to-layer="2168" to-port="2" />
		<edge from-layer="2168" from-port="3" to-layer="2169" to-port="1" />
		<edge from-layer="2169" from-port="2" to-layer="2170" to-port="1" />
		<edge from-layer="2170" from-port="2" to-layer="2213" to-port="0" />
		<edge from-layer="2170" from-port="2" to-layer="2204" to-port="0" />
		<edge from-layer="2170" from-port="2" to-layer="2173" to-port="0" />
		<edge from-layer="2171" from-port="0" to-layer="2173" to-port="1" />
		<edge from-layer="2172" from-port="0" to-layer="2173" to-port="2" />
		<edge from-layer="2173" from-port="3" to-layer="2175" to-port="0" />
		<edge from-layer="2173" from-port="3" to-layer="2186" to-port="0" />
		<edge from-layer="2174" from-port="0" to-layer="2179" to-port="0" />
		<edge from-layer="2175" from-port="1" to-layer="2178" to-port="0" />
		<edge from-layer="2176" from-port="0" to-layer="2178" to-port="1" />
		<edge from-layer="2177" from-port="0" to-layer="2178" to-port="2" />
		<edge from-layer="2178" from-port="3" to-layer="2179" to-port="1" />
		<edge from-layer="2178" from-port="3" to-layer="2181" to-port="2" />
		<edge from-layer="2179" from-port="2" to-layer="2181" to-port="0" />
		<edge from-layer="2180" from-port="0" to-layer="2181" to-port="1" />
		<edge from-layer="2181" from-port="3" to-layer="2183" to-port="0" />
		<edge from-layer="2182" from-port="0" to-layer="2183" to-port="1" />
		<edge from-layer="2183" from-port="2" to-layer="2185" to-port="0" />
		<edge from-layer="2184" from-port="0" to-layer="2185" to-port="1" />
		<edge from-layer="2185" from-port="2" to-layer="2186" to-port="1" />
		<edge from-layer="2186" from-port="3" to-layer="2218" to-port="0" />
		<edge from-layer="2186" from-port="3" to-layer="2196" to-port="0" />
		<edge from-layer="2187" from-port="0" to-layer="2189" to-port="0" />
		<edge from-layer="2188" from-port="0" to-layer="2189" to-port="2" />
		<edge from-layer="2189" from-port="3" to-layer="2191" to-port="0" />
		<edge from-layer="2190" from-port="0" to-layer="2191" to-port="1" />
		<edge from-layer="2191" from-port="2" to-layer="2195" to-port="0" />
		<edge from-layer="2191" from-port="2" to-layer="2217" to-port="0" />
		<edge from-layer="2192" from-port="0" to-layer="2194" to-port="1" />
		<edge from-layer="2193" from-port="0" to-layer="2194" to-port="2" />
		<edge from-layer="2194" from-port="3" to-layer="2195" to-port="1" />
		<edge from-layer="2195" from-port="2" to-layer="2196" to-port="1" />
		<edge from-layer="2196" from-port="2" to-layer="2201" to-port="0" />
		<edge from-layer="2196" from-port="2" to-layer="2198" to-port="1" />
		<edge from-layer="2197" from-port="0" to-layer="2198" to-port="2" />
		<edge from-layer="2198" from-port="3" to-layer="2200" to-port="0" />
		<edge from-layer="2199" from-port="0" to-layer="2200" to-port="1" />
		<edge from-layer="2200" from-port="2" to-layer="2202" to-port="0" />
		<edge from-layer="2201" from-port="1" to-layer="2202" to-port="1" />
		<edge from-layer="2202" from-port="2" to-layer="2203" to-port="0" />
		<edge from-layer="2204" from-port="1" to-layer="2224" to-port="0" />
		<edge from-layer="2204" from-port="1" to-layer="2208" to-port="0" />
		<edge from-layer="2204" from-port="1" to-layer="2216" to-port="0" />
		<edge from-layer="2205" from-port="0" to-layer="2208" to-port="1" />
		<edge from-layer="2206" from-port="0" to-layer="2208" to-port="2" />
		<edge from-layer="2207" from-port="0" to-layer="2208" to-port="3" />
		<edge from-layer="2208" from-port="4" to-layer="2210" to-port="0" />
		<edge from-layer="2209" from-port="0" to-layer="2210" to-port="1" />
		<edge from-layer="2210" from-port="2" to-layer="2212" to-port="0" />
		<edge from-layer="2211" from-port="0" to-layer="2212" to-port="1" />
		<edge from-layer="2212" from-port="2" to-layer="2213" to-port="1" />
		<edge from-layer="2213" from-port="2" to-layer="2220" to-port="0" />
		<edge from-layer="2214" from-port="0" to-layer="2216" to-port="1" />
		<edge from-layer="2215" from-port="0" to-layer="2216" to-port="2" />
		<edge from-layer="2216" from-port="3" to-layer="2217" to-port="1" />
		<edge from-layer="2217" from-port="2" to-layer="2218" to-port="1" />
		<edge from-layer="2218" from-port="2" to-layer="2220" to-port="1" />
		<edge from-layer="2218" from-port="2" to-layer="2227" to-port="0" />
		<edge from-layer="2219" from-port="0" to-layer="2220" to-port="2" />
		<edge from-layer="2220" from-port="3" to-layer="2226" to-port="0" />
		<edge from-layer="2221" from-port="0" to-layer="2225" to-port="0" />
		<edge from-layer="2222" from-port="0" to-layer="2224" to-port="1" />
		<edge from-layer="2223" from-port="0" to-layer="2224" to-port="2" />
		<edge from-layer="2224" from-port="3" to-layer="2225" to-port="1" />
		<edge from-layer="2224" from-port="3" to-layer="2228" to-port="1" />
		<edge from-layer="2225" from-port="2" to-layer="2226" to-port="1" />
		<edge from-layer="2226" from-port="2" to-layer="2229" to-port="0" />
		<edge from-layer="2227" from-port="1" to-layer="2228" to-port="0" />
		<edge from-layer="2228" from-port="2" to-layer="2229" to-port="1" />
		<edge from-layer="2229" from-port="2" to-layer="2230" to-port="0" />
	</edges>
	<rt_info>
		<MO_version value="2022.3.0-9052-9752fafe8eb-releases/2022/3" />
		<Runtime_version value="2022.3.0-9052-9752fafe8eb-releases/2022/3" />
		<conversion_parameters>
			<framework value="onnx" />
			<input value="image" />
			<input_model value="DIR/model_ready.onnx" />
			<input_shape value="[-1, 3, 736, 992]" />
			<mean_values value="[0, 0, 0]" />
			<model_name value="model" />
			<output value="boxes,labels" />
			<output_dir value="DIR" />
			<scale_values value="[255, 255, 255]" />
		</conversion_parameters>
		<legacy_frontend value="False" />
		<model_info>
			<confidence_threshold value="0.30000000000000004" />
			<iou_threshold value="0.5" />
			<labels value="Jump No_Jump" />
			<model_type value="ssd" />
		</model_info>
	</rt_info>
</net>
